1_Neural Network Models/1_Code_Jupyter/models/model_sigmoid.onnx (onnx, 13869 bytes, 12 tensors)

model.0.weight f4 [5]
2.0923574 1.7384254 0.8661879 1.9997822 1.4393778
00000000: 2fe9 0540 b984 de3f 7dbe 5d3f ddf8 ff3f
00000010: 883d b83f

model.0.bias f4 [5]
0.11158245 -0.24662885 0.0925631 0.11700349 0.37390935
00000000: 5785 e43d 468c 7cbe b991 bd3d 879f ef3d
00000010: 0c71 bf3e

model.0.running_mean f4 [5]
0.041180648 -0.002287903 -0.03139689 0.030292986 -0.00548758
00000000: 0aad 283d a5f0 15bb 069a 00bd ff28 f83c
00000010: 28d1 b3bb

model.0.running_var f4 [5]
0.9825252 1.0018508 0.96494293 0.9956312 1.0095866
00000000: c686 7b3f a63c 803f 8006 773f b0e1 7e3f
00000010: 223a 813f

model.1.weight f4 [64, 5]
-0.9452938 -0.9209429 0.45357996 0.21775028 1.2059149 -0.9796985 -1.0894223 0.08474872
-0.6427445 0.9891692 -0.048530385 -1.3356481 0.51408637 0.5452363 0.9775015 0.82292086
-0.8062224 0.33106032 0.8488025 0.7960095 1.3765026 0.2188167 -0.2900673 1.1180503
0.10431616 1.2546532 0.6795639 0.2098809 0.6691575 -0.89066136 0.8766059 -0.98060995
0.10901362 0.9472572 0.9136761 1.2565429 0.3270519 0.16296977 1.1123376 -0.64293736
0.6672467 1.0651572 0.20668203 -0.293735 -0.8195246 1.083894 -0.78676564 0.23926832
0.65686977 0.73714346 -1.2114084 -0.8387305 0.31059957 -0.9471115 0.75533986 1.046017
0.54700243 0.11299158 1.2598629 -0.5967947 -0.44220275 -1.2668211 0.23478784 0.94961745
0.80533826 -0.52142924 0.7484747 -0.11923482 -0.77659863 -0.6508788 0.8742093 -0.78895617
0.22350684 1.2445874 0.10390668 1.1723793 0.21546729 -0.026972359 1.4174287 0.19279096
1.176163 0.5127085 -0.17958364 0.30583146 -0.94794697 0.625862 -0.8868954 0.4257728
0.6640396 0.8969204 -1.144763 0.37062326 0.41574427 -0.5653065 -0.23588035 1.4023248
-0.085509196 0.07258529 1.3485278 0.29784003 -1.1510968 0.42025614 0.1611573 -1.3043429
-0.3689621 -1.1695136 -1.1006514 -0.076929346 -0.60239136 0.78124183 -1.3448918 0.40626255
0.290744 -0.91295266 0.15264037 -1.4522352 -0.06942141 0.45055288 -0.8135446 -0.060515337
1.0934086 0.7406903 -0.081924886 0.8057658 -0.9836604 -1.3493149 -0.30335495 0.29501128
-1.2025248 0.30024025 0.91174376 0.4343122 0.06945858 0.96531963 -0.72834575 -0.98783225
-0.47293156 -0.08306187 -1.1679258 -0.19117238 0.21138237 0.9040696 0.21149224 0.023854062
-0.60241085 -0.49274302 0.004810211 0.2613374 -1.1966438 -0.11603538 -0.8990813 -1.599115
0.21057871 -0.5791498 0.6044237 1.1338333 0.26353678 0.06183391 1.4522173 0.5110321
-0.8376022 0.6485716 0.0214585 -0.53249824 -0.5965983 -1.2930632 -0.9662781 -0.05271774
-1.182146 0.79428065 -1.423417 -0.39973634 0.18709181 -1.295136 0.031024572 -1.0420768
-0.093633845 -0.24330924 -0.88171524 -0.29694822 1.2705878 -0.54223114 0.05023678 0.8114158
0.1202534 -1.3822005 0.17364818 0.3121981 -0.9908156 -0.3232512 1.1544744 0.2939396
0.23858476 1.3974336 0.13130115 1.2928507 0.24691603 -0.17139994 1.2314485 -0.9069865
1.3558968 -0.75887394 -0.08892734 0.8243053 0.18338968 0.79226315 1.4262279 -0.31105387
0.29862615 -0.3430077 0.699392 1.0921866 -0.0112574715 -0.6488316 -0.37965754 -0.14883088
-1.3554939 0.3985404 0.71968615 0.77531826 -0.79965526 -1.4637978 0.43129805 0.74313986
0.8256596 1.1106112 -0.29960492 0.4837399 0.939562 -0.18016677 -1.0593904 0.16359599
0.02746657 -1.0064652 -0.25128826 -1.2753822 -0.48084 0.05923465 -0.8244773 0.91229385
-0.39645955 -1.5342221 0.41236576 -0.16080083 0.88407063 0.49658033 -1.2571942 0.6106423
0.36644405 0.9430768 -0.2570665 0.7308448 0.028483184 -0.7163945 -0.68170553 -0.25482908
00000000: c6fe 71bf eac2 6bbf a23b e83e eef9 5e3e
00000010: 6b5b 9a3f 85cd 7abf 3172 8bbf bd90 ad3d
00000020: e78a 24bf 313a 7d3f ccc7 46bd 84f6 aabf
00000030: 2a9b 033f 9b94 0b3f 8a3d 7a3f f1aa 523f
00000040: 9764 4ebf bd80 a93e 1f4b 593f 47c7 4b3f
00000050: 3d31 b03f 7c11 603e b383 94be 461c 8f3f
00000060: b6a3 d53d 7a98 a03f e6f7 2d3f 05eb 563e
00000070: e84d 2b3f 6202 64bf 3f69 603f 4109 7bbf
00000080: 8842 df3d 737f 723f ade6 693f 66d6 a03f
00000090: 5973 a73e 8ce1 263e 1461 8e3f 8b97 24bf
000000a0: aed0 2a3f 1257 883f 74a4 533e 6f64 96be
000000b0: 5dcc 51bf 0abd 8a3f 7969 49bf c102 753e
000000c0: 9e28 283f 6fb5 3c3f 6e0f 9bbf 0bb7 56bf
000000d0: e806 9f3e e675 72bf f45d 413f e3e3 853f
000000e0: 5a08 0c3f 2168 e73d 3043 a13f 8ac7 18bf
000000f0: 6668 e2be 3227 a2bf 396c 703e 211a 733f
00000100: a62a 4e3f 637c 05bf 0a9c 3f3f 6331 f4bd
00000110: 2bcf 46bf fe9f 26bf 2ecc 5f3f 08f9 49bf
00000120: fade 643e a44e 9f3f 07cd d43d 8610 963f
00000130: 75a3 5c3e 23f5 dcbc 4e6e b53f fe6a 453e
00000140: 828c 963f dd40 033f c6e4 37be f195 9c3e
00000150: a7ac 72bf 7e38 203f 940b 63bf e4fe d93e
00000160: 80fe 293f 939c 653f 9887 92bf 55c2 bd3e
00000170: 6fdc d43e edb7 10bf 9e8a 71be 617f b33f
00000180: 721f afbd 99a7 943d 8f9c ac3f 7d7e 983e
00000190: 2457 93bf d02b d73e 6b06 253e b5f4 a6bf
000001a0: 9ae8 bcbe 9fb2 95bf 25e2 8cbf 228d 9dbd
000001b0: 5236 1abf 77ff 473f 6a25 acbf a501 d03e
000001c0: 66dc 943e 44b7 69bf c24d 1c3e d8e2 b9bf
000001d0: d02c 8ebd deae e63e 7544 50bf eede 77bd
000001e0: d0f4 8b3f e19d 3d3f 3cc8 a7bd ab46 4e3f
000001f0: 2bd1 7bbf 5ab6 acbf 5751 9bbe b80b 973e
00000200: 55ec 99bf 17b9 993e 0a68 693f 2b5e de3e
00000210: 4d40 8e3d 301f 773f de74 3abf 93e2 7cbf
00000220: 1624 f2be 571c aabd 987e 95bf b1c2 43be
00000230: 9f74 583e 1b71 673f 6c91 583e 9869 c33c
00000240: 9937 1abf d048 fcbe f99e 9d3b 04ce 853e
00000250: a02b 99bf f5a3 edbd 312a 66bf cdaf ccbf
00000260: f2a1 573e 2943 14bf 83bb 1a3f 7321 913f
00000270: 4bee 863e 8e45 7d3d 42e2 b93f 00d3 023f
00000280: 196d 56bf ca08 263f bcc9 af3c ce51 08bf
00000290: abba 18bf 1883 a5bf 005e 77bf 8fee 57bd
000002a0: 8f50 97bf fa55 4b3f 8732 b6bf 3eaa ccbe
000002b0: ff94 3f3e 04c7 a5bf 3e27 fe3c c662 85bf
000002c0: 1ac3 bfbd 0f26 79be 17b8 61bf 9909 98be
000002d0: 9fa2 a23f a9cf 0abf 15c5 4d3d f2b8 4f3f
000002e0: 6a47 f63d f2eb b0bf d4d0 313e 6ed8 9f3e
000002f0: 17a6 7dbf 2e81 a5be d1c5 933f 407f 963e
00000300: 904f 743e 1bdf b23f cf73 063e 227c a53f
00000310: 8ed7 7c3e 7783 2fbe 1ba0 9d3f 4430 68bf
00000320: 078e ad3f 9045 42bf 8a1f b6bd ac05 533f
00000330: 81ca 3b3e c2d1 4a3f a38e b63f 7442 9fbe
00000340: 87e5 983e b59e afbe 5b0b 333f c5cc 8b3f
00000350: 4271 38bc d419 26bf 7962 c2be 1f67 18be
00000360: d380 adbf 7d0d cc3e 5a3d 383f 427b 463f
00000370: 35b6 4cbf ba5d bbbf 19d3 dc3e 6a3e 3e3f
00000380: 6d5e 533f 8228 8e3f d165 99be c2ac f73e
00000390: 2387 703f a37d 38be 1b9a 87bf b585 273e
000003a0: 9201 e13c dad3 80bf dba8 80be b93f a3bf
000003b0: a930 f6be 08a0 723d f210 53bf 178c 693f
000003c0: bffc cabe 6461 c4bf 9b21 d33e f9a8 24be
000003d0: 7452 623f c73f fe3e bdeb a0bf 0e53 1c3f
000003e0: 8e9e bb3e 7b6d 713f 389e 83be a518 3b3f
000003f0: 9155 e93c a165 37bf 4184 2ebf f578 82be

model.1.bias f4 [64]
-0.49010912 0.11406403 -0.8889959 0.23189044 -0.21071018 -0.40852982 0.47245595 -0.1643665
0.5118689 0.22988714 0.18927167 -0.44320142 -0.60422945 -0.39797753 0.40960062 -0.024599895
-0.34348792 -0.0238948 -0.25491503 0.3076541 -0.7842411 0.00758851 -0.49748188 0.08867095
-0.39748606 0.01839997 -0.26453936 -0.698846 0.1550957 -0.5875957 -0.01730154 0.3741831
-0.6789427 0.101755224 -0.20574094 -0.5448358 -0.011357088 -0.28151187 0.32007197 -0.5112017
0.29433227 0.1199244 0.2813489 -0.6078028 -0.8892417 -0.18821652 -0.2424646 0.20882434
-0.5552293 -0.43064588 -0.14691897 -0.52837586 -0.26687062 -0.54500055 0.11208653 -0.34301603
0.39239776 -0.39064255 -0.99291706 -0.05170646 -0.07264035 -0.45162722 0.25566515 0.18353693
00000000: 95ef fabe 679a e93d 3c95 63bf b074 6d3e
00000010: 69c4 57be d22a d1be bfe5 f13e b14f 28be
00000020: d709 033f 8967 6b3e 6fd0 413e 4ceb e2be
00000030: c8ae 1abf b6c3 cbbe 2cb7 d13e b885 c9bc
00000040: a6dd afbe 07bf c3bc 3984 82be d784 9d3e
00000050: 06c4 48bf 09a9 f83b f2b5 febe 1d99 b53d
00000060: 4b83 cbbe 89bb 963c b471 87be 92e7 32bf
00000070: 68d1 1e3e ac6c 16bf f6bb 8dbc ed94 bf3e
00000080: 30cf 2dbf 0b65 d03d c1ad 52be 5c7a 0bbf
00000090: 1413 3abc 5322 90be 79e0 a33e 1dde 02bf
000000a0: b8b2 963e ec9a f53d f70c 903e f798 1bbf
000000b0: 58a5 63bf d5bb 40be a448 78be 0cd6 553e
000000c0: 8223 0ebf 9e7d dcbe ed71 16be a443 07bf
000000d0: 44a3 88be 2885 0bbf 9f8d e53d cc9f afbe
000000e0: 5ce8 c83e 4d02 c8be d02f 7ebf 27ca 53bd
000000f0: 77c4 94bd af3b e7be 8be6 823e 1bf1 3b3e

model.3.weight f4 [32, 64]
-0.20692304 -0.06765491 -0.57916707 -0.20508176 0.19079402 0.59032416 -0.32342556 0.41876876
0.7737348 -0.22800522 -0.15771206 0.37083378 -0.3876804 0.507424 -0.2598716 0.027073042
0.5862858 -0.3627092 0.34872612 -0.15685278 0.28475282 -0.15376604 0.27243665 0.21352719
0.8308754 0.1584596 0.41651365 0.15018535 0.6868185 0.29222968 -0.32539505 -0.019764496
0.29566395 -0.25793442 0.14533706 0.15632454 0.015278665 0.30977243 0.17045213 0.29465616
0.09487599 0.75109714 0.66934097 -0.48476782 -0.47497213 0.22419068 0.17489885 -0.05047789
-0.41792747 -0.42188284 0.49438038 -0.5305408 -0.35820052 0.17411737 0.20999028 0.23509336
-0.16507262 0.15945534 -0.5891195 0.21331401 0.15603437 -0.10424703 -0.2057988 -0.3341868
-0.11457775 0.03959582 -0.5695003 -0.58067214 -0.50083625 -0.060261924 -0.7089811 -0.47240418
0.13997373 -0.476258 0.27811667 -0.58555806 -0.56146413 0.5023744 -0.6152979 -0.5694159
-0.08237782 -0.6107476 0.2088737 -0.81628066 0.6043588 0.09752911 0.4562059 0.293452
-0.25450176 0.32126907 -0.0463978 0.16766316 0.08332915 0.32534003 -0.043362327 -0.68527365
0.3521928 0.3706767 0.46060452 0.40917653 -0.54345787 0.3254149 -0.48448142 -0.5278644
-0.4593071 0.00028091416 0.14574267 -0.45419562 -0.39632517 -0.4467044 0.48274997 0.2776541
-0.116508335 -0.53563815 0.25012487 -0.5713199 -0.61997974 -0.29839352 -0.27477685 0.549655
-0.5252738 0.3481879 -0.46906942 -0.4541709 0.4267273 -0.069395445 -0.6504877 0.18077832
-0.8397273 -0.55966663 -0.67073756 -0.10116997 0.3063299 0.53643507 -0.045022998 0.48144627
0.41797563 -0.07026842 -0.6240011 0.5649148 -0.62132543 0.12659849 0.24963385 0.38826194
0.4351034 -0.1487038 -0.3237697 0.2522498 -0.44823664 -0.83002305 -0.37439433 -0.38469627
0.5161477 -0.51150155 0.18342718 -0.40284216 0.332814 -0.3429971 -0.68689895 0.24421896
-0.009140405 -0.8367815 -0.7586821 -0.3585689 0.018639874 -0.3995385 0.30579785 0.6075003
0.18856849 0.42775276 0.3345424 -0.443749 -0.64547235 0.08035722 -0.1601962 -0.6755016
-0.5840031 -0.24060218 0.17869473 -0.37175128 -0.3251398 -0.1855652 0.2720229 -0.4351089
0.19915305 -0.48237693 -0.833609 0.16175245 -0.47878945 -0.39331472 -0.06694567 -0.8397106
0.23200797 -0.14464262 0.7348972 0.67420894 0.45240507 0.076456465 0.64779675 0.4459244
-0.25971317 0.55860263 -0.45788053 0.46621284 0.4501473 -0.51623183 0.6239131 0.5806563
0.13991149 0.48848844 -0.19983059 0.70071185 -0.4030476 -0.22891754 -0.5151736 -0.46002844
0.1778219 -0.41704378 0.104190774 -0.3064429 -0.28937274 -0.21665436 0.0030789773 0.7017873
-0.29486537 -0.51467097 -0.5708836 -0.42249534 0.45114693 -0.37553647 0.58131295 0.59773564
0.36754492 -0.10372506 -0.3816594 0.4762781 0.51977795 0.3723237 -0.39601856 -0.32149747
0.1909319 0.54317933 -0.48366496 0.5344167 0.6356719 0.38098842 0.32255182 -0.5147829
0.4837704 -0.2983239 0.5917182 0.532398 -0.4002451 -0.03272129 0.52253336 -0.20178616
00000000: a2e3 53be a88e 8abd 4b44 14bf f400 52be
00000010: 825f 433e 7c1f 173f 0998 a5be dc68 d63e
00000020: 7c13 463f 337a 69be 457f 21be eddd bd3e
00000030: 0c7e c6be 8ae6 013f e40d 85be 49c8 dd3c
00000040: d416 163f 05b5 b9be 3b8c b23e 049e 20be
00000050: 1fcb 913e d874 1dbe d17c 8b3e dfa6 5a3e
00000060: 40b4 543f 3c43 223e 4741 d53e 30ca 193e
00000070: 56d3 2f3f 219f 953e 2e9a a6be 27e9 a1bc
00000080: 4461 973e fb0f 84be 3dd3 143e 8a13 203e
00000090: 5e53 7a3c 7e9a 9e3e 018b 2e3e 2cdd 963e
000000a0: 584e c23d e747 403f ee59 2b3f 7d33 f8be
000000b0: 8c2f f3be 3e92 653e af18 333e e7c1 4ebd
000000c0: 97fa d5be 0701 d8be 6d1f fd3e 86d1 07bf
000000d0: 0f66 b7be d34b 323e b107 573e 50bc 703e
000000e0: cc08 29be 4348 233e 89d0 16bf fd6e 5a3e
000000f0: 79c7 1f3e 787f d5bd ecbc 52be 881a abbe
00000100: bda7 eabd 3a2f 223d c6ca 11bf eea6 14bf
00000110: ce36 00bf 35d5 76bd c97f 35bf f6de f1be
00000120: 4655 0f3e 17d8 f3be 4f65 8e3e 22e7 15bf
00000130: 1dbc 0fbf 9c9b 003f 2a84 1dbf 3ec5 11bf
00000140: b4b5 a8bd f459 1cbf fde2 553e c5f7 50bf
00000150: 42b7 1a3f 58bd c73d d293 e93e 573f 963e
00000160: 0e4e 82be 617d a43e 9f0b 3ebd e4af 2b3e
00000170: 79a8 aa3d f892 a63e b29c 31bd 186e 2fbf
00000180: 9d52 b43e 56c9 bd3e 5bd4 eb3e 967f d13e
00000190: 0e20 0bbf c89c a63e f30d f8be 1f22 07bf
000001a0: 4d2a ebbe a947 9339 913d 153e 548c e8be
000001b0: 22eb cabe 70b6 e4be 012b f73e ae28 8e3e
000001c0: ec9b eebd 951f 09bf 5e10 803e 0542 12bf
000001d0: feb6 1ebf 09c7 98be 8daf 8cbe 31b6 0c3f
000001e0: 5878 06bf af45 b23e de29 f0be 1789 e8be
000001f0: 007c da3e 331f 8ebd 5d86 26bf f41d 393e
00000200: 5ef8 56bf 5046 0fbf 75b5 2bbf 3432 cfbd
00000210: 46d7 9c3e cf53 093f 096a 38bd 2080 f63e
00000220: e700 d63e e4e8 8fbd 89be 1fbf 429e 103f
00000230: 2f0f 1fbf 09a3 013e 04a0 7f3e 45ca c63e
00000240: dfc5 de3e cf45 18be 24c5 a5be e326 813e
00000250: 467f e5be 647c 54bf 9db0 bfbe e9f6 c4be
00000260: 4122 043f c4f1 02bf 56d4 3b3e 5441 cebe
00000270: 9966 aa3e 519d afbe 9cd8 2fbf 8914 7a3e
00000280: a3c1 15bc 5037 56bf fd38 42bf 5896 b7be
00000290: a6b2 983c 4f90 ccbe 8991 9c3e 2485 1b3f
000002a0: 1918 413e 6902 db3e 2449 ab3e 1233 e3be
000002b0: ad3d 25bf 5392 a43d 790a 24be aced 2cbf
000002c0: 3a81 15bf 6b60 76be c0fb 363e 2f56 bebe
000002d0: b978 a6be ce04 3ebe 9646 8b3e 98c6 debe
000002e0: c7ee 4b3e 1cfa f6be 6667 55bf 6fa2 253e
000002f0: e423 f5be 8c60 c9be d01a 89bd 46f7 56bf
00000300: 7f93 6d3e 321d 14be 3922 3c3f f598 2c3f
00000310: a3a1 e73e 3595 9c3d 02d6 253f 3450 e43e
00000320: 20f9 84be 9500 0f3f 516f eabe 73b3 ee3e
00000330: b579 e63e c527 04bf c5b8 1f3f e4a5 143f
00000340: f544 0f3e 281b fa3e 64a0 4cbe da61 333f
00000350: 415c cebe 5c69 6abe 6be2 03bf d988 ebbe
00000360: f216 363e c386 d5be f961 d53d 15e6 9cbe
00000370: aa28 94be a4da 5dbe abc8 493b 55a8 333f
00000380: 98f8 96be 7ac1 03bf 6d25 12bf 4f51 d8be
00000390: bbfc e63e 5146 c0be edd0 143f 3405 193f
000003a0: d92e bc3e ce6d d4bd dc68 c3be b9da f33e
000003b0: 2b10 053f 36a1 be3e f2c2 cabe 519b a4be
000003c0: a783 433e cd0d 0b3f efa2 f7be 88cf 083f
000003d0: 65bb 223f ea10 c33e 8325 a53e d0c8 03bf
000003e0: c1b0 f73e e9bd 98be d87a 173f 3c4b 083f
000003f0: edec ccbe c206 06bd bfc4 053f 08a1 4ebe

model.3.bias f4 [32]
0.21891834 -0.041949786 -0.02478049 0.037472986 0.041324817 0.08271401 -0.32764548 -0.051341124
0.06398641 0.027518459 0.03844973 0.20522845 -0.10834022 -0.011131823 -0.14228787 -0.40336138
-0.27089575 -0.088851154 -0.10132402 -0.18336086 -0.34988847 0.053719394 -0.08162206 0.035011176
0.010640626 0.010930322 -0.211115 0.038478475 0.12049752 0.053703163 0.36566004 -0.0831758
00000000: 212c 603e 8ad3 2bbd 7400 cbbc 467d 193d
00000010: 3644 293d f665 a93d 26c1 a7be 124b 52bd
00000020: 4f0b 833d 646e e13c 777d 1d3d 6827 523e
00000030: 7ae1 ddbd 4062 36bc e9b3 11be 6285 cebe
00000040: d9b2 8abe 98f7 b5bd f882 cfbd f3c2 3bbe
00000050: 9524 b3be de08 5c3d 7729 a7bd e167 0f3d
00000060: 0556 2e3c 1815 333c 882e 58be 9b9b 1d3d
00000070: 67c7 f63d d9f7 5b3d cb37 bb3e 1358 aabd

model.5.weight f4 [16, 32]
0.047614947 -0.43175745 0.6558608 0.07641196 -0.34340122 -0.8072026 -0.58788747 -0.33208612
0.36587635 -0.60582286 -0.3573479 0.38545826 -0.23593196 -0.6626706 -0.45142862 -0.6093749
-0.54756695 -0.38751745 -0.6875336 0.60452026 -0.58077836 0.4038194 0.20752643 -0.43100417
0.58230567 0.48402667 -0.81637657 -0.575781 0.6901895 -0.57915163 0.4867916 0.24812892
-1.1117188 -0.46801603 -0.42020223 -0.0038196575 -0.581462 0.62199104 0.96851605 -0.80878156
0.21710928 -0.5353958 -0.8284786 -0.96761227 -0.73114294 0.32608837 0.50109535 0.8506855
0.8748669 -0.20908356 0.66718614 -0.49851936 0.743919 -0.30811504 -0.13081545 -0.5147437
-0.46652758 -0.36559546 0.94015324 -0.22488824 -0.6590891 0.5106772 -0.8561294 0.24127516
0.18632697 0.6395682 -0.52654123 -0.7061956 0.52309257 0.29126188 -0.5518426 0.34636822
-0.8563028 0.26992437 0.66791826 0.35111433 0.41440195 0.26574183 -0.6252797 -0.67102236
-0.594471 0.5293857 -0.054622278 -0.77963215 -0.3594791 -0.61402386 -0.7833023 0.4569332
-0.8210331 -0.5291456 -0.5489848 0.5042492 -0.56433517 0.10774893 0.12686357 -0.9709044
-0.39793104 -0.61660427 0.5712875 0.42764407 -0.274505 -0.5905825 -0.20340268 -0.4439221
0.3615914 -0.53370863 -0.6560404 -0.16924779 -0.31959966 -0.7297138 0.16601206 -0.2215728
-0.4770831 -0.43736985 -0.70014495 0.764795 -0.5346581 0.4360903 0.08480656 -0.6214648
0.7578869 0.7168032 -0.613452 -0.2882961 0.44073403 -0.74154943 -0.09160734 0.4781772
-0.39585268 -0.5392076 0.3017082 0.6087488 -0.60273 -0.2326741 0.45189545 -0.61604196
0.58709943 -0.38002738 -0.4780311 -0.1323159 -0.4257716 -0.44048434 0.6198501 0.58052516
0.13875979 -0.5680495 0.016951911 0.41898316 0.09465691 0.64615834 0.6274952 -0.43216488
0.3746346 0.6624531 0.42721966 -0.40908915 0.4717623 -0.33677426 -0.24273002 0.6869357
0.3617899 0.5144818 -0.1493712 -0.9050392 0.6615678 0.3739877 -0.78879035 0.7974717
-0.7283154 0.5984778 0.66478276 0.5638828 0.578225 0.4395906 -0.7535977 -0.82633513
-0.58142376 0.5042835 0.016112152 -0.7738418 -0.45322925 -0.64851415 -0.83604896 0.7411738
-0.85359454 -0.79941195 -0.74851495 0.66773105 -0.24607088 0.24622482 0.38369215 -0.7043954
0.653766 0.24594855 0.8291481 -0.20456822 0.4650248 -0.20437911 -0.8271371 0.3486224
-0.23837712 0.18286076 0.3871806 0.7068017 0.5330385 0.25199026 -0.5856359 -0.75643164
-0.80810696 0.2811517 -0.40016806 0.36323956 -0.7086672 0.5248259 -0.23031819 0.43740636
0.29988667 0.3270786 -0.83939475 0.43811935 0.7953586 -0.35487646 0.7850435 -0.39159834
-0.9047304 -0.45160303 -0.515135 0.25270414 -0.6352291 0.17259501 0.9022536 -0.55942404
0.26512128 -0.3617049 -0.47846553 -1.0722761 -0.6619778 0.19855641 0.510384 0.7629372
0.71546113 -0.44579622 0.43511948 -0.20529145 0.8475614 -0.5622827 0.032388307 -0.34977758
-0.35251704 -0.61446124 0.8756278 -0.34536892 -0.6803441 0.5677645 -1.0672541 0.1096197
00000000: e407 433d 500f ddbe 7ee6 273f e07d 9c3d
00000010: 49d2 afbe d4a4 4ebf cb7f 16bf 3107 aabe
00000020: 2554 bb3e 3517 1bbf 4ef6 b6be c95a c53e
00000030: 2698 71be c8a4 29bf a721 e7be feff 1bbf
00000040: 592d 0cbf b068 c6be 3402 30bf d7c1 1a3f
00000050: e4ad 14bf 6bc1 ce3e cf81 543e 94ac dcbe
00000060: fc11 153f 58d2 f73e 0efe 50bf 6266 13bf
00000070: 42b0 303f 4843 14bf c03c f93e 8215 7e3e
00000080: cd4c 8ebf cc9f efbe bf24 d7be 3853 7abb
00000090: b2da 14bf ce3a 1f3f abf0 773f 4f0c 4fbf
000000a0: e551 5e3e b30f 09bf 2c17 54bf 70b5 77bf
000000b0: 2f2c 3bbf 0ef5 a63e c947 003f 86c6 593f
000000c0: 47f7 5f3f 001a 56be b6cc 2a3f ee3d ffbe
000000d0: 7a71 3e3f 41c1 9dbe 7cf4 05be 3ec6 03bf
000000e0: b4dc eebe 542f bbbe e2ad 703f 1a49 66be
000000f0: 10ba 28bf bebb 023f 4c2b 5bbf d610 773e
00000100: 7fcc 3e3e beba 233f 68cb 06bf 3cc9 34bf
00000110: 65e9 053f 4720 953e 8e45 0dbf 2d57 b13e
00000120: a936 5bbf 8733 8a3e b1fc 2a3f 42c5 b33e
00000130: 7e2c d43e 500f 883e 5512 20bf 1fc8 2bbf
00000140: 402f 18bf d285 073f 9cbb 5fbd f995 47bf
00000150: a50d b8be ab30 1dbf 8086 48bf 26f3 e93e
00000160: 3a2f 52bf 1676 07bf 458a 0cbf 7a16 013f
00000170: 4578 10bf 79ab dc3d 86e8 013e 318d 78bf
00000180: 9ebd cbbe c7d9 1dbf e63f 123f 2af4 da3e
00000190: eb8b 8cbe 6a30 17bf cb48 50be c249 e3be
000001a0: 8222 b93e 21a1 08bf 43f2 27bf 4b4f 2dbe
000001b0: 91a2 a3be 86ce 3abf 11ff 293e fbe3 62be
000001c0: 3c44 f4be f1ee dfbe b33c 33bf 9bc9 433f
000001d0: 5adf 08bf 3a47 df3e 10af ad3d 5118 1fbf
000001e0: e004 423f 6a80 373f 310b 1dbf 8c9b 93be
000001f0: e4a7 e13e 2fd6 3dbf a19c bbbd a4d3 f43e
00000200: 34ad cabe 8209 0abf 7f79 9a3e f6d6 1b3f
00000210: 834c 1abf 1f42 6ebe d75e e73e edb4 1dbf
00000220: 264c 163f f392 c2be 7ec0 f4be d27d 07be
00000230: bcfe d9be 2a87 e1be 7fae 1e3f 4c9d 143f
00000240: 0c17 0e3e b16b 11bf bcde 8a3c f684 d63e
00000250: 7bdb c13d a26a 253f 87a3 203f b744 ddbe
00000260: 1bd0 bf3e 8796 293f 89bc da3e 2274 d1be
00000270: d48a f13e ad6d acbe 388e 78be 05db 2f3f
00000280: 873c b93e 14b5 033f c4f4 18be a6b0 67bf
00000290: 825c 293f 517b bf3e 2aee 49bf 1b27 4c3f
000002a0: e172 3abf d735 193f 342f 2a3f a05a 103f
000002b0: 8e06 143f 0512 e13e c7eb 40bf b38a 53bf
000002c0: 30d8 14bf b918 013f a2fd 833c 7f1a 46bf
000002d0: aa0d e8be 0605 26bf 4e07 56bf 91bd 3d3f
000002e0: 2c85 5abf 43a6 4cbf ad9e 3fbf 6cf0 2a3f
000002f0: 01fa 7bbe 5c22 7c3e 4c73 c43e 4253 34bf
00000300: 355d 273f f0d9 7b3e 0d43 543f 557a 51be
00000310: bb17 ee3e c248 51be 42bf 53bf a37e b23e
00000320: 2219 74be da3f 3b3e 893c c63e f5f0 343f
00000330: 3675 083f de04 813e 3cec 15bf 81a5 41bf
00000340: 19e0 4ebf 1ef3 8f3e d4e2 ccbe 89fa b93e
00000350: 376b 35bf fd5a 063f 88d8 6bbe baf3 df3e
00000360: bf8a 993e d976 a73e 93e2 56bf 2e51 e03e
00000370: 9f9c 4b3f 5eb2 b5be 9cf8 483f 947f c8be
00000380: 699c 67bf 8338 e7be e3df 03bf 7062 813e
00000390: 609e 22bf bfbc 303e 18fa 663f 6a36 0fbf
000003a0: fabd 873e 6231 b9be 6ff9 f4be 5840 89bf
000003b0: 6177 29bf 5f52 4b3e 87a8 023f da4f 433f
000003c0: 7628 373f 673f e4be fbc7 de3e ec37 52be
000003d0: c9f9 583f c2f1 0fbf 9aa9 043d 0c16 b3be
000003e0: 1d7d b4be 554d 1dbf 2529 603f 32d4 b0be
000003f0: 082b 2ebf 0459 113f c89b 88bf 4b80 e03d

model.5.bias f4 [16]
-0.0900568 -0.29677832 -0.15625826 -0.12520245 0.26906928 -0.24040289 0.031661734 -0.09228986
0.056813043 -0.277015 0.022408653 0.09554615 0.2865645 -0.06710374 -0.23571303 -0.030477975
00000000: b36f b8bd 54f3 97be 2a02 20be 1235 00be
00000010: 73c3 893e 2d2c 76be bcaf 013d 7702 bdbd
00000020: cbb4 683d e9d4 8dbe 5a92 b73c b3ad c33d
00000030: 95b8 923e b06d 89bd c25e 71be f2ac f9bc

model.8.weight f4 [3, 16]
1.2376832 -0.7824621 -0.7581936 1.0599134 0.73435575 -1.0673692 0.79367965 -0.707534
0.8405661 1.1685547 -0.85715425 0.7589074 0.72505146 -1.3634335 -0.8329156 -1.4979503
-0.7852149 1.253581 -0.5567922 -0.28344697 0.67535776 -0.954803 -1.4788864 1.3729478
-1.2993499 -0.49782062 1.2115091 -1.561889 0.87932706 0.77408963 -0.8486382 0.7935905
-1.0509808 -0.60090303 1.296542 -1.2819065 -1.4671881 1.099981 0.7357703 -0.7391505
0.8549484 -1.1497244 -0.78107554 0.74106985 -1.3691757 0.5869879 1.2667081 0.55800956
00000000: 676c 9e3f 704f 48bf fa18 42bf 3eab 873f
00000010: bdfe 3b3f 8e9f 88bf 972e 4b3f f320 35bf
00000020: 572f 573f 3393 953f 766e 5bbf c147 423f
00000030: f99c 393f fd84 aebf f539 55bf d6bc bfbf
00000040: d803 49bf 5875 a03f ef89 0ebf f61f 91be
00000050: 3fe4 2c3f f86d 74bf 264c bdbf c1bc af3f
00000060: 1951 a6bf 58e2 febe bb12 9b3f fbeb c7bf
00000070: 941b 613f bd2a 463f 5a40 59bf bf28 4b3f
00000080: 8a86 86bf c8d4 19bf 17f5 a53f 8315 a4bf
00000090: d2cc bbbf 2dcc 8c3f 715b 3c3f f838 3dbf
000000a0: e6dd 5a3f 2b2a 93bf 91f4 47bf c1b6 3d3f
000000b0: 2641 afbf d744 163f 7e23 a23f b7d9 0e3f

model.8.bias f4 [3]
0.13922434 0.3170701 -0.011511942
00000000: d390 0e3e 0357 a23e 969c 3cbc
