1_Neural Network Models/1_Code_Jupyter/models/model_relu.onnx (onnx, 13833 bytes, 12 tensors)

model.0.weight f4 [5]
00000000: 537e b73f 6d40 9e3f b910 473f 3a98 c83f
00000010: d635 8d3f
1.4335426 1.2363411 0.7775989 1.5671456 1.1032054

model.0.bias f4 [5]
00000000: fb10 bc3d ee17 69bd 8aa2 b13d d876 ac3c
00000010: 8903 643e
0.09182926 -0.056907587 0.0867358 0.021052763 0.22266974

model.0.running_mean f4 [5]
00000000: f681 073c 0851 4ebd e750 943c 92fc 023d
00000010: 2729 303d
0.008270731 -0.050370246 0.018104983 0.03197915 0.043007996

model.0.running_var f4 [5]
00000000: 0432 7e3f 7228 833f 3ac2 6e3f f7a8 7c3f
00000010: a089 813f
0.9929507 1.0246718 0.93265116 0.9869532 1.0120125

model.1.weight f4 [64, 5]
00000000: 8d20 813d 42f9 9abf 176c 833e 63d2 423e
00000010: 7ecd fb3e 8f66 13bf d8f1 2bbe f1e6 c3be
00000020: d2bb 6cbf 76fe 95be 9446 cc3c 4e79 e8be
00000030: 1ee2 8d3e e085 b93e aba9 4d3f ae23 4dbd
00000040: 5f49 0e3e b6c2 753e ab65 093f 09f8 973e
00000050: 4d70 debd 4e32 22be d488 e3bc 1e5c 003e
00000060: 49ee 98be 998d 5b3f 7903 aa3e d1b1 8f3e
00000070: 0478 1b3f e91a babe b0d4 1fbf e2fb d23d
00000080: 13a9 073f be01 0bbe f686 38be e8b1 27bf
00000090: bfb1 973d eed3 e03e f5c5 3bbf 1bb1 0cbf
000000a0: 9949 52bf 9ff1 ed3e ee35 7abe 41a9 59bf
000000b0: 4edf 93bd 68ae 5b3e 8cf8 4c3e d5dd efbe
000000c0: 5a3a 743f ec5f 2fbf 6db3 bbbe 8962 acbd
000000d0: 7050 843e 7975 17bf ce6b 72be ed29 acbe
000000e0: 6cdd fbbe 09cf 183f d2bf 8a3e b030 463f
000000f0: 6d0d 16be 8f4b 02bf d666 d8bc 5c50 d23e
00000100: d80b f63e 6a7a ddbd 6333 3bbf 8ec7 cebd
00000110: 6c2c a73d 480d 4e3f 308b cbbe 8468 c83e
00000120: 3942 a73e 6b8f 43bf 692e fe3d e313 24bf
00000130: 1dbb c93e 6fc7 67bd 4774 cfbe 2c30 203e
00000140: 4688 7dbe e7e8 e8be 32c5 dfbe b1fd 0cbf
00000150: 9b43 1cbe 6ba6 3ebf 9a7c 013f 8367 e93e
00000160: 7f27 16bf 1e05 8a3d 3c50 b7be 553d 1ebf
00000170: cc1d aa3b 5824 50bd e1a2 d33e 8d22 10be
00000180: 57d3 6b3e 034f 11be 7f0e efbe 169a 563e
00000190: 77b1 fcbe a694 20be 9b1b 1d3e 2afc 5e3e
000001a0: 06e1 8abe 3510 51be 09ee 8cbe 4fa9 2dbd
000001b0: 48b3 a4bc 6a5c 40be 32c9 023f 9160 e43e
000001c0: 13dc fabd 73f0 5e3f 209a d6be f7aa 4e3f
000001d0: 1814 513e 6b5e a4bc cf5c 013f 48f8 eebe
000001e0: 0a18 a33d da63 c9bc eee0 8f3d 2278 dcbe
000001f0: fc4e 8a3d 9876 ba3e 493f ff3e 4a5f 933e
00000200: edbe 173f 6903 62be 4856 8dbd ae1d 153e
00000210: 98d1 d53e 0a76 543e 9da5 293e 6007 fdbd
00000220: f343 27bf 9aac 113d 2b28 27be 3b95 c83e
00000230: 8451 753e 029a 30be ab29 62be 63d1 6bbd
00000240: 0197 18be 0010 3fbe 5964 3fbf b9b1 9e3d
00000250: d9c3 ec3e 71ee dc3e 34df bfbe 87ec 1dbe
00000260: 44a8 b23d bea3 5ebe 193e f5be b33e 60bd
00000270: 0724 62be a4ff 093e 2e8a 763e 41d1 1f3e
00000280: 9dd2 4ebe c4aa 1fbf d843 b53d e8fd 58be
00000290: c299 6b3e bf53 18bf d168 e9bc 6f6c ad3e
000002a0: 83fa 1ebf 51db a3be d0f9 69be 6f03 50bf
000002b0: 5452 b03e 15d0 0f3f ccd4 2e3f 5f5e 10bd
000002c0: 1c37 99be 86cd 1fbd 5e67 e6be 9431 923c
000002d0: 5892 82be f75a 5ebf aea3 cabe 67aa 5c3e
000002e0: 35f5 573f da24 253f 0d9a ce3e 5de3 60be
000002f0: 5058 313f 8f89 43bd 04a4 e83e 9f69 f73e
00000300: f0fa 2dbe e83f 5b3f 6d6b d6be 09f7 7ebd
00000310: c3f5 6fbf 2d31 cc3e 638e 913d 72d9 423f
00000320: f0f8 4bbf 9828 053f 3a77 ec3d c7cb 01bf
00000330: e4c7 ec3d eb4c 39bf 4dff f8bc cb17 ba3e
00000340: c2de 0bbe 0f5e cfbe 9799 493f 7d56 423f
00000350: 6185 813d 3a45 383f 6698 d4bd 7750 fabe
00000360: e54e ff3d bbb6 7ebd eecb 1abf bef9 0ebe
00000370: 8b49 edbe 43d4 83bf 8e18 0d3e 3d70 533d
00000380: e8db d83e e4de 6fbe 7cec 873c 1808 fc3e
00000390: 81d6 39bf 14eb c6bd f3ad 82be ef02 87bf
000003a0: 9c07 1d3d 6ef6 bc3e be41 2d3f 472d 833f
000003b0: d91a bf3e fc84 9a3c c3c3 d63e 77c7 b5be
000003c0: 71b3 0ebf a7f3 d1be 1def cebc 65fb 003f
000003d0: ef6e 573f 018c d23e 0e2f be3e f000 26be
000003e0: 78fb 7a3f c2b1 17be a76d 003f bec7 573c
000003f0: cf22 b2be 2cd8 ef3e fa55 aabe 97f4 0abf
0.06305037 -1.2107317 0.25668404 0.19025569 0.49180216 -0.57578367 -0.16791475 -0.38262132
-0.9247409 -0.292957 0.024935998 -0.45405048 0.27711576 0.3623495 0.8033702 -0.050082855
0.13895176 0.24000058 0.5367076 0.29681423 -0.108612634 -0.15839502 -0.027775206 0.1253514
-0.29869297 0.85762936 0.33205774 0.2806535 0.60730004 -0.36348656 -0.6243391 0.10301949
0.5299236 -0.13574883 -0.18020234 -0.6550584 0.07406949 0.4391169 -0.73348933 -0.5495774
-0.8214355 0.46473405 -0.24434635 -0.85023886 -0.07220326 0.2145325 0.20016688 -0.46848932
0.9540154 -0.6850574 -0.36660329 -0.084172316 0.2584262 -0.59163624 -0.23673937 -0.33625737
-0.4919237 0.5969091 0.27099472 0.7741804 -0.14653559 -0.50896543 -0.026416223 0.41076934
0.4805591 -0.10814364 -0.73125285 -0.10096656 0.0816277 0.80489016 -0.3975463 0.3914224
0.3266771 -0.76390713 0.12411196 -0.64092845 0.3940057 -0.05658668 -0.405184 0.15643376
-0.24759015 -0.4549019 -0.43705136 -0.550746 -0.15260164 -0.74472684 0.5058075 0.45586786
-0.58654016 0.06739257 -0.358034 -0.61812335 0.0051915403 -0.05081591 0.41335204 -0.1407568
0.23029839 -0.14190297 -0.46690747 0.20957217 -0.49354145 -0.15681705 0.15342562 0.2177588
-0.27124804 -0.20416339 -0.27525356 -0.042397793 -0.02010502 -0.18785253 0.5108825 0.44604924
-0.12249007 0.87085646 -0.41914463 0.8072962 0.20417821 -0.020064553 0.5053224 -0.466738
0.079635695 -0.024583746 0.07025324 -0.43060404 0.06753346 0.36418605 0.4985297 0.28783637
0.59275705 -0.22071613 -0.069012225 0.14562103 0.4176147 0.20748153 0.16567083 -0.12354922
-0.6533806 0.035564996 -0.16323917 0.39176354 0.23956877 -0.1724625 -0.22086208 -0.057572734
-0.14901353 -0.18658447 -0.74762493 0.07748742 0.4624317 0.43150666 -0.37474978 -0.1542226
0.087235 -0.2174215 -0.4789894 -0.054747295 -0.22084056 0.13476425 0.24076149 0.15607168
-0.2019753 -0.6236994 0.08850831 -0.21190608 0.23007873 -0.59502786 -0.028492363 0.3387179
-0.62101 -0.32003263 -0.22849202 -0.8125524 0.3443781 0.56176883 0.6829345 -0.03524625
-0.29924858 -0.03901436 -0.45000738 0.017845906 -0.25502276 -0.8685755 -0.39578003 0.21549378
0.8435853 0.64509356 0.40351906 -0.21961732 0.6927538 -0.047738608 0.45437634 0.4832277
-0.16990256 0.8564439 -0.41878834 -0.06224731 -0.9373438 0.39881268 0.07107236 0.76113045
-0.79676723 0.52015066 0.11546178 -0.50701565 0.115615636 -0.7238299 -0.030395174 0.36346278
-0.13659194 -0.4050145 0.78749985 0.7591322 0.06324268 0.7198063 -0.1038063 -0.48889515
0.1246622 -0.062185984 -0.6046742 -0.13962457 -0.4634517 -1.0299152 0.13778898 0.05162071
0.42355275 -0.2342487 0.016592257 0.49224925 -0.7259293 -0.09712806 -0.25523338 -1.054777
0.038337335 0.3690676 0.6767844 1.0248193 0.3732517 0.01886224 0.4194623 -0.35503742
-0.55742556 -0.41006204 -0.025260502 0.503836 0.84153646 0.4112244 0.37145275 -0.16211295
0.9803996 -0.14813903 0.50167316 0.013170181 -0.34792182 0.46844614 -0.3326872 -0.54279464

model.1.bias f4 [64]
00000000: 4857 5cbd ac40 c6be 56f3 793e b837 ba3d
00000010: b2f6 0bbf e3cd 9d3e 7809 b1be c016 4fbe
00000020: cd8b d9be fb9c 18be 228a 24be a883 06be
00000030: 2fdf 3cbe 4cf6 31bc fe89 2a3d 3eb6 f4bc
00000040: a93f 003c 514d e4bd cb5a 863e 57df 02bf
00000050: 4ed4 bfbc c461 febe f896 c93e 54a4 973e
00000060: a211 3bbe a968 653e c7a2 a0be 4391 a33d
00000070: 4575 18be a4af 5ebe b043 c0bd bbc2 6b3e
00000080: f03d b8be 6432 08be 72f7 e3be 54c0 533e
00000090: dfb5 523d 9944 38be c0d6 3c3e 6189 4d3d
000000a0: a600 b2be 0743 91be d2b6 1a3e 633d 753d
000000b0: e01b 38be 5039 d4bd af34 1c3d 373b 98be
000000c0: 0518 bcbe 0bce b43e 6ba9 b03e b144 64be
000000d0: e835 cb3d 790a 3bbe 0fec 1fbe 7d00 e2bd
000000e0: 55bd 65be 1caf c4bd a02a 45be 49c3 dc3d
000000f0: ad69 adbe 31b5 8ebe 19b5 a9bd 9b7e 48be
-0.053794175 -0.38721216 0.24409232 0.09092659 -0.546733 0.30821142 -0.34577537 -0.20223522
-0.42489472 -0.14903633 -0.16068318 -0.1313616 -0.18444513 -0.010861944 0.041635506 -0.029872056
0.007827678 -0.111475594 0.26241145 -0.5112204 -0.023416664 -0.49683964 0.39372993 0.2961756
-0.18268445 0.22403206 -0.3137419 0.07986691 -0.14888485 -0.21746689 -0.0938791 0.23023503
-0.35984755 -0.13300472 -0.44524723 0.20678836 0.051442977 -0.17994918 0.18441296 0.050179843
-0.3476612 -0.2837145 0.15108803 0.059872996 -0.17979383 -0.10362494 0.03813618 -0.29732677
-0.36737075 0.35313448 0.34504256 -0.22291829 0.09922391 -0.18265714 -0.15617393 -0.110352494
-0.22435506 -0.09603712 -0.19254541 0.10779435 -0.33869687 -0.27872613 -0.08286495 -0.19579546

model.3.weight f4 [32, 64]
00000000: bd5c 0ebe 2831 ca3d 6d5b 9c3a 3a0f 8d3c
00000010: 252e 38be 382d e0bb 293d 183d 6278 7dbd
00000020: 9910 15be 3aad f33d 98a8 8cbd 0291 9bbd
00000030: c4ce a3bc 68eb 37be a196 8f3c a5c2 f8bd
00000040: 9907 ccbd 8aab 39be 34f0 3bbe 7ebc bfbd
00000050: ec21 f7bd 66f9 e43d 23c4 4abe 0166 08be
00000060: 46da 46be 030b 0ebe 7827 013e 8799 20bd
00000070: 5bf0 04bc 2076 68b9 c35d 483c 26ef fa3c
00000080: 78eb 9fbd 2356 3bbe c08a 413c 9326 a93c
00000090: 85c3 02be 2d1b c53c 36ae 0abe b6bc 48bb
000000a0: d42d 08bd 7572 84bb e6b7 11ba 7309 07be
000000b0: 16fc 3f3d 4e0e 44be 238f adbd f051 1fbd
000000c0: 8b90 10bb f92f ffbd 0126 05bd 0505 d8bc
000000d0: 2033 97bd f9e5 023d be3c 1dbd 6bfd 47be
000000e0: 1a03 fb3c 20bb a0bd 8ecf 25bd cdd6 8fbd
000000f0: f667 fbbd b29c 0abe 2df3 2d3d 1b32 68bd
00000100: 1441 d43d 456d c83e 9844 fd3d b580 d43d
00000110: 0d05 23bc af80 9dbe 86f4 f83b 97ed 033e
00000120: abfa 193e 8feb c8be 5abe ee3c 4193 7f3e
00000130: 8f78 f03c 864c da3b bf12 603d 3a23 173e
00000140: fcd3 c93d cadf a43d 7a56 423e f2b3 853e
00000150: 4bab 0c3e fdca a33d 35ef 0abe 1e88 5ebe
00000160: e776 d43c 9653 0dbe 20d5 0c3d bdae 6a3e
00000170: 6be3 803e f07a 0a3e 115d a4bc ff2e 053e
00000180: b7f5 3a3d 43e1 4ebc 3241 843d 7d48 0b3e
00000190: 8a86 b73d f40d d1be 564a 18bf 0923 3d3e
000001a0: dc38 023e e347 ccbd f3d8 1cbf 4b85 f53d
000001b0: c74a 8abd db6e 343b e948 de3d b2a6 57be
000001c0: d521 f7bd 0a28 03bf 103c 6ebe 996d 91be
000001d0: eeb2 68be 0d31 1b3d 76ec 30bd a2ab 8d3d
000001e0: 9d28 e23c 948c 8abe bd6f c0bc e3e8 d33d
000001f0: 464b b03d bc25 d33b 36d4 c5bd ea4c 02bd
00000200: 63a3 993e ac44 46be 78bf 833e 9cd7 bd3d
00000210: 8e51 31be 1421 8b3b c2b6 3abe 49d8 dabe
00000220: 5c25 b0be 6c12 09be 8931 babd efb3 9a3e
00000230: 7e45 c43e ca28 8f3e 51ea bbbe cb99 f4bd
00000240: c30b 01bd 1ede a7be f9a8 2d3e 63e2 91be
00000250: 801e 46be 8291 0f3e aacc 25be db49 95be
00000260: 6c26 8dbb 9f0c 92be 3f5a da3e 3fdf 803e
00000270: f98f 06be 0498 6a3e b8c9 bb3b fada 2e3d
00000280: bb12 1f3e bfc2 cebe 50e1 383e f8ff b63c
00000290: 7a11 a53e 4bba b4bc 7bbb f4bd cc51 863e
000002a0: 8db7 34be b003 62be af78 b0bc 612e adbe
000002b0: 2d6b f03e 2012 1abe 2f03 923e 0085 b7be
000002c0: 352e 263e b379 babc 8d3d abbd 1358 1e3e
000002d0: c377 cabe cd80 cc3e 1295 263d 260d e93e
000002e0: 4045 7a3e 8527 79be cc8b 02be f9d1 a9be
000002f0: c1b8 6b3c 49dc c23e 74ee acbe 6b0a c43e
00000300: 9f04 0f3e 6ae6 9ebe 1f55 043e b35d 1bbe
00000310: 1132 edbd 47a3 bcbd 9435 0dbe 8ede 96be
00000320: 69d5 2dbe 8280 3dbe 2e20 0cbe 6c71 ee3e
00000330: 9fba ec3e 34b6 9f3e 8349 98be 2b9e 2cbd
00000340: 8050 41bd 81ca 67be b29a 043d dea4 f9bd
00000350: a745 7bbe 72e9 373d 4022 8abe ddcf 4bbe
00000360: 2d9e 51be 694d d0be da72 b73e a0a5 063f
00000370: 20c6 15be 4778 ad3e 8cae 8dbe 6566 10bb
00000380: c0c4 aabd c7f6 f1be 51e1 123e 13e6 0bbd
00000390: c842 a23e a97e 50be a5d6 7dbe 4bba 2c3e
000003a0: 46d5 25be 1a65 2ebe 4881 1dbe 08c7 3ebe
000003b0: cdbc de3e 6467 eebd 4561 d13d 07b0 e8be
000003c0: 5486 6e3e 5173 893c 6bfc 90bd d85b 583e
000003d0: a006 bbbe d10c b93e 0d47 a4bd af04 083f
000003e0: b3a2 4b3e bf5d 29be 6161 b9bc eeca 97be
000003f0: 7130 a0bd 0742 e73e 484a bdbe 7bd9 9b3e
-0.13902564 0.09872657 0.0011929102 0.017219175 -0.17986353 -0.006841328 0.037167702 -0.061882384
-0.14557113 0.11898275 -0.06868094 -0.075960174 -0.019996054 -0.17960894 0.01752788 -0.121465005
-0.09962387 -0.18131843 -0.18353349 -0.09362124 -0.12067017 0.111803815 -0.19801383 -0.13320161
-0.19419202 -0.13871388 0.12612712 -0.039208915 -0.008113946 -0.00022169249 0.012229386 0.030631613
-0.07808584 -0.18294577 0.011812866 0.020648276 -0.12769897 0.02406081 -0.13543019 -0.0030630059
-0.03324683 -0.0040419647 -0.0005558714 -0.13187198 0.046871267 -0.19146082 -0.08474567 -0.0388965
-0.002205881 -0.12460322 -0.032506946 -0.026369581 -0.07382798 0.0319576 -0.038388006 -0.19530265
0.030641127 -0.07848191 -0.040481143 -0.07023392 -0.12275688 -0.13536337 0.04246824 -0.05668841
0.10363975 0.39145866 0.12366599 0.103761114 -0.009949935 -0.3076224 0.007597509 0.12883602
0.15037028 -0.39242217 0.029143501 0.24958517 0.029354362 0.0066619543 0.054705378 0.14759532
0.09854886 0.08050497 0.189783 0.2611385 0.13737218 0.07997701 -0.13567813 -0.21731612
0.025935603 -0.13801417 0.03438294 0.2291822 0.25173506 0.1352346 -0.020063909 0.13006209
0.04564449 -0.012626949 0.064577475 0.13601871 0.08961208 -0.40830958 -0.5948843 0.18470396
0.12717003 -0.09974649 -0.6126854 0.11988314 -0.06752544 0.0027531895 0.1085375 -0.21059683
-0.12067 -0.5123297 -0.232651 -0.2840393 -0.22724506 0.037888575 -0.043194257 0.06917502
0.027607257 -0.27060378 -0.023490781 0.10347154 0.08608107 0.0064437073 -0.09659617 -0.031811632
0.30007467 -0.19362134 0.25732017 0.0926964 -0.17316267 0.0042458866 -0.18233779 -0.42743137
-0.34403503 -0.13385934 -0.09091479 0.30215403 0.38334268 0.27960807 -0.36702207 -0.11943396
-0.031505357 -0.3278665 0.16958989 -0.28493032 -0.19347572 0.1402035 -0.16191354 -0.2915791
-0.0043075588 -0.28525254 0.42646977 0.25170323 -0.13140859 0.22909552 0.005730834 0.0426893
0.15534489 -0.40382954 0.180547 0.022338852 0.32239896 -0.022061488 -0.119498216 0.2623428
-0.17648144 -0.22071719 -0.021541921 -0.33824447 0.4695677 -0.15045977 0.28518054 -0.35843658
0.16228564 -0.022763109 -0.08361349 0.15463285 -0.39544496 0.39942017 0.04066951 0.45517844
0.2444048 -0.24331482 -0.12748641 -0.3316801 0.0143873105 0.3805869 -0.33775675 0.38289198
0.13966607 -0.31035167 0.12923096 -0.15172462 -0.11581815 -0.0921083 -0.1378997 -0.2946667
-0.16975941 -0.18506053 -0.1368415 0.4657091 0.4623613 0.31193697 -0.29743585 -0.04214303
-0.04719591 -0.22635843 0.03237409 -0.12189649 -0.24538289 0.044900365 -0.26979256 -0.19903512
-0.20470496 -0.4068406 0.35829812 0.52596474 -0.1462636 0.33880827 -0.2767223 -0.0022033688
-0.08338308 -0.4725859 0.14343764 -0.034154963 0.31691575 -0.20360817 -0.24788912 0.1686794
-0.16194639 -0.17030755 -0.15381348 -0.18630612 0.4350342 -0.11640814 0.10223631 -0.45446798
0.2329343 0.01677862 -0.07079395 0.21128786 -0.36528492 0.3614259 -0.08021364 0.53132147
0.19886284 -0.16539668 -0.022629442 -0.2964701 -0.078217395 0.45167562 -0.36970735 0.30439362

model.3.bias f4 [32]
00000000: efbb 4d3c 0958 c5bc 527a 9bbd f3a6 ce39
00000010: 01af 01be cf81 1c3e d855 3bbd e87e 1c3d
00000020: 397a 14be c734 413d ba42 64bb 380d 663d
00000030: 7022 babc ae9a 29bd b1da 303e e7f1 733e
00000040: 12c9 fabd 531b 623e 4172 bb3c 78e5 9f3d
00000050: 70f1 403e c3be 14be 0c55 b7bd 72bc 633d
00000060: 0996 23be 5977 aa3b 4600 123d fbe4 6abd
00000070: 2c56 28be 9b54 cd3c 04e9 e23d 2383 28be
0.012557014 -0.02408983 -0.0759169 0.0003941577 -0.12664415 0.15283893 -0.045736164 0.038206965
-0.14499749 0.047169473 -0.0034829811 0.05616495 -0.0227215 -0.04140728 0.17270924 0.23822747
-0.12245382 0.22080736 0.022881629 0.078074396 0.18842101 -0.14525895 -0.08951768 0.055599637
-0.15975203 0.0052022156 0.035644792 -0.05734728 -0.16439122 0.025064757 0.110796005 -0.16456275

model.5.weight f4 [16, 32]
00000000: 3c6e 3abb cda4 2fbd 50a5 a03d 5bfd 54be
00000010: beaa a9bd a256 a33d 0550 c3bc 1ea3 36be
00000020: c811 13bd e655 bdbd 6561 193e 224f 2fbe
00000030: 2739 bc3d a57f 243d 59ed 45be 79b4 59bd
00000040: 39db 363d 53da 293e 237c d4bd a804 a73c
00000050: 6953 b23d aa6b 2fbe fec0 e2bd 96d0 793d
00000060: f7b4 21be 61c5 8dbd 60b0 18be 5ba5 0cbe
00000070: 1334 53be 3551 a63d 1753 b8bd 1925 2bbe
00000080: 5bbe cd3d 3488 1b3e 70a0 59bd c870 07be
00000090: 654c dc3d 4c66 ac3c f9ad e1bc 1b81 57bd
000000a0: 17b9 0cbe 3241 d93e 21eb f1bd 30ae c03e
000000b0: 17e3 da3d 332b fb3d 4938 743e 9544 b03e
000000c0: fc2c 3c3d 4f3f aa3e f8bb 173e 7473 903e
000000d0: 3081 13be 6b93 1a3e bdb0 253d 5af4 343e
000000e0: b3da 37be 46ed 33be 1f2f 5fbe 6b42 503e
000000f0: 12f7 603d 2497 6dbe 4a1e b73e 6dff c8bd
00000100: 2072 44be a590 d13e 7e42 55bc 2e34 72be
00000110: 9773 e23d 4c83 4e3e 84b7 0abe e71c 79be
00000120: 5daf 5abe 0140 adbe 3799 9abe 03b0 79be
00000130: 65e9 003f 3fa4 003f fab6 8cbe 9182 88be
00000140: 4c02 c9bd c6b6 64bd 2b0f 673e 9539 94bd
00000150: cc69 bdbe e22b 233f 3131 dc3d 544d 013f
00000160: 587e 003e a18f 90bb 3351 2dbe 8ac2 103f
00000170: 4380 e73e 2915 1cbe 121b f8be 6541 68bd
00000180: e098 19bd fc36 07bf 4ff3 b2be 31ce b5be
00000190: 5412 4e3d a467 b43d d487 363e bb92 acbe
000001a0: 83b0 9cbe b62f 9c3e 468a 5bbe 8603 bc3e
000001b0: 3c4b 16bf a9a9 5bbe 3aec b63e d7ed cd3e
000001c0: 9d68 f3be c6b5 a53e 7701 dcbe 9990 ce3e
000001d0: 7999 c53c 2209 adbd 0fe9 8fbd 77c8 9dbe
000001e0: eca8 04bd 46dd eabd e6ad d9be 1201 f5be
000001f0: 51e4 16bf 5f29 6abe 247d da3e 0b05 8abd
00000200: dd95 153e 986a 833d 084a 09bd 23ab c63d
00000210: f6f0 9e3d 854b e03d f4d1 4bbe b254 26be
00000220: 86c9 ce3d 9974 b0bd 0ef2 fe3d 0943 25be
00000230: 746c 06bd 834c b7bd d90e d23d 3f0a ba3d
00000240: b2ab 0ebe 4008 883d ba0c f6bd ee38 883b
00000250: 1530 59be 52a1 4abe a4e8 283d 372f 9ebd
00000260: d3ba 043e ed18 c6bd f18d 6abe 6cbe 24be
00000270: 342d 033d 0d5c 1e3e cb63 26be 342d 8a3d
00000280: bc2b acbd c86b 463e 74f6 8f3e 6801 313e
00000290: af31 243e 5dcf 213d 596b 883e 1ffd 353e
000002a0: 29d8 d83d 08b0 15be 2b1d 8d3e bb50 03bf
000002b0: 35bc 693e b007 ae3d c684 18bf 918d 05bf
000002c0: 2904 2a3e f669 06bf 821e 533e 6994 09bf
000002d0: 46c7 b63d 0c25 333e f402 11bd 4cd0 a23e
000002e0: e627 84bd fa1b 623f 7140 f73e 8c08 d33d
000002f0: 1144 6c3d f65d 823e cfa8 b4be 2063 e73d
00000300: 695e 893e a3ef 613e 9d47 e33e aab8 3a3e
00000310: cf48 e5bd 9f32 f6be d746 303d 4258 c03e
00000320: e308 c93e c608 87be a5a1 803d f058 93be
00000330: b849 19be 28fc 84be a4a3 7cbe 8fb7 10be
00000340: d4a4 f13e cbc1 c6be 8267 c7bc b0c9 93be
00000350: ed33 2c3d dae3 0abf 97fb e23d ff76 aa3c
00000360: 904d 8fbd 6757 9e3e eda3 8d3e b210 8fbe
00000370: 4381 96be 0709 e53e 719c 60be f617 9fbd
00000380: 5a1e 9d3d 4ed6 cb3d 6ca0 cf3d 8a8b d2bd
00000390: 797d 0dbe 8a21 453f 48a0 783c 404c 393e
000003a0: dc27 693d 6897 edbd d668 34be c586 a0bd
000003b0: 2b65 ed3e c39f 2b3f 9b77 5fbd 0dbd dabd
000003c0: 2878 33be a311 e5bb 7691 a93c be51 e33d
000003d0: f502 3bbe 9c37 023f b4cb 47be 8af7 3b3e
000003e0: 38ed 19bd 8937 37be 1454 95bd f218 e23e
000003f0: ad15 033f 6434 4bbe 0cc3 18be 82aa 0dbe
-0.0028447052 -0.042881776 0.07844031 -0.20799772 -0.082845196 0.07975508 -0.023841867 -0.17835662
-0.03590563 -0.092448995 0.1497856 -0.1712003 0.091905884 0.040160794 -0.19328822 -0.053150628
0.04464266 0.1658719 -0.1037524 0.020387962 0.087073155 -0.17130914 -0.110719666 0.06098994
-0.15791689 -0.06922413 -0.14911032 -0.13734953 -0.20625333 0.08120958 -0.09000223 -0.1671337
0.10046073 0.15188676 -0.05313152 -0.13226616 0.107567586 0.021044873 -0.027548777 -0.05261336
-0.13742481 0.42432553 -0.118124254 0.37632895 0.10687845 0.12264099 0.23849596 0.34427324
0.045941338 0.33251426 0.14817798 0.28213084 -0.1440475 0.15095298 0.040451754 0.17671338
-0.17954521 -0.17570981 -0.21795319 0.20337836 0.054923125 -0.23202187 0.35765296 -0.098143436
-0.1918416 0.40930668 -0.013016341 -0.23652717 0.11057203 0.20167273 -0.13546568 -0.24327432
-0.21355958 -0.33837894 -0.3019502 -0.2438355 0.5035613 0.5025062 -0.2748335 -0.26662114
-0.09814891 -0.05583837 0.2256438 -0.072375454 -0.3699478 0.63738835 0.1075157 0.5050862
0.12548196 -0.004411653 -0.16925506 0.56546843 0.45215043 -0.15242447 -0.48458153 -0.05670299
-0.03749931 -0.52818274 -0.34951255 -0.35508874 0.050310448 0.088088304 0.17825252 -0.33705696
-0.30603418 0.3050515 -0.21439466 0.36721438 -0.5870855 -0.21451439 0.35727102 0.4022052
-0.4754075 0.32365245 -0.42969868 0.40344694 0.024121033 -0.084490076 -0.07026874 -0.30817005
-0.03238766 -0.11467986 -0.42515486 -0.4785238 -0.58942133 -0.22867344 0.426736 -0.06739243
0.1460795 0.064168155 -0.033517867 0.097006105 0.077608034 0.10951904 -0.1990431 -0.16243246
0.10097031 -0.08615989 0.12448512 -0.16138853 -0.032818273 -0.0895014 0.10256738 0.090839855
-0.13932684 0.066421986 -0.12014146 0.004157177 -0.21209748 -0.19788101 0.04123749 -0.07723849
0.12961893 -0.09672723 -0.22905709 -0.16088265 0.03202553 0.15464802 -0.16249005 0.06746903
-0.08406779 0.19377053 0.28117716 0.17285693 0.16034578 0.039504398 0.266444 0.1777234
0.10588104 -0.14617932 0.27561316 -0.5129506 0.22825702 0.0849756 -0.59577596 -0.5216914
0.1660315 -0.52505434 0.20617107 -0.5374208 0.08924727 0.17494601 -0.035403207 0.31799543
-0.064529225 0.8832394 0.48291352 0.103043646 0.0576821 0.25462312 -0.3528504 0.112982035
0.26829842 0.2206407 0.44390574 0.18234506 -0.11195528 -0.48085496 0.04303631 0.37567335
0.39264593 -0.2637388 0.06280831 -0.2877879 -0.14969528 -0.2597363 -0.24671799 -0.14132522
0.47196066 -0.38819727 -0.024341349 -0.28864813 0.042041708 -0.54253924 0.11083143 0.020808695
-0.06997216 0.30926058 0.27664128 -0.27942425 -0.29395494 0.4473345 -0.21934678 -0.07768242
0.07671805 0.09952985 0.1013802 -0.10280521 -0.13817395 0.770043 0.015174933 0.18095493
0.05692278 -0.11601144 -0.17618117 -0.07838205 0.46366248 0.6704065 -0.054557424 -0.1068059
-0.17526305 -0.006990628 0.020699244 0.110995755 -0.18262847 0.50866103 -0.195113 0.18356147
-0.037579745 -0.17892279 -0.07291427 0.44159657 0.5120495 -0.19844204 -0.14918154 -0.13834575

model.5.bias f4 [16]
00000000: e460 29be c933 23bd fbeb a83d 15cd b23e
00000010: 2357 14be bd75 353d b522 383e ac01 91bd
00000020: 6b20 8b3d a74d 57bd e65e 02be d5e6 27be
00000030: fc7e 1cbe aaba f2bd 8790 7e3d 57e7 96bc
-0.16540867 -0.039844308 0.08248135 0.3492209 -0.14486365 0.044301737 0.1798199 -0.07080397
0.067932926 -0.05256429 -0.12731513 -0.16396649 -0.15282816 -0.118520096 0.06214955 -0.018420858

model.8.weight f4 [3, 16]
00000000: a2f4 c9bd a767 a13e 7dbc f2bc ef11 083f
00000010: 98c7 003d f991 47bf e3d3 05bf 9bc8 6fbe
00000020: 8fc3 0a3f d8bd 89be dcf5 54be 4a66 953b
00000030: 3282 8abd 0e4b b9be 41bf b9be 5a7c 41be
00000040: aa74 b9bd d4d0 24bf f03d d1be f2ce a2be
00000050: 475c 823d e3dc 753e f181 5e3e 7a05 01bf
00000060: 7118 82be ca49 ffbe e03c db3c b6c9 82bd
00000070: 49b9 23be be68 b1bd 425f fd3d c1a0 f0bd
00000080: 2370 41ba 9872 a73d a358 9a3e 5d7d f6be
00000090: 3de1 7abe 9930 d1bd c9f8 81be a22f 453f
000000a0: 0570 c3be 2c84 853e 74e4 e5bd 33bd 043e
000000b0: 5bd4 073e 8953 353d 2087 82be cd93 e23e
-0.09861113 0.31524393 -0.029630894 0.53152364 0.031440347 -0.7795711 -0.5227644 -0.23416369
0.5420465 -0.26902652 -0.20796913 0.004559313 -0.06763114 -0.36190075 -0.36278728 -0.18895093
-0.09055455 -0.64381146 -0.40867567 -0.31798512 0.06365257 0.24010043 0.21729256 -0.5039898
-0.25409272 -0.49860984 0.026762426 -0.063861296 -0.1598865 -0.08662556 0.123716846 -0.117494114
-0.00073790754 0.08176154 0.3014575 -0.4814252 -0.24499984 -0.102143474 -0.2538512 0.77025807
-0.38171402 0.26077402 -0.112252146 0.12962799 0.13264601 0.04426912 -0.25493717 0.44253388

model.8.bias f4 [3]
00000000: 3b27 803e a8a3 083e ad34 0dbf
0.2502993 0.1334368 -0.551585
