1_Neural Network Models/1_Code_Jupyter/models/model_tanh.onnx (onnx, 13833 bytes, 12 tensors)

model.0.weight f4 [5]
0	0x3f88f179	1.0698692
1	0x3fcb3f6b	1.5878729
2	0x3ed14c72	0.40878636
3	0x3f8cc24f	1.0996798
4	0x3f9d6acb	1.2298216

model.0.bias f4 [5]
0	0x3d0252cd	0.031817246
1	0x3c068776	0.008211007
2	0x3e87527d	0.2643012
3	0x3e063a13	0.13108091
4	0x3dc5a726	0.09651022

model.0.running_mean f4 [5]
0	0x3cda42d5	0.026643196
1	0xbc3c57eb	-0.011495571
2	0x3c108d45	0.008822744
3	0x3cf7d1dd	0.030251438
4	0x3b71989f	0.003686465

model.0.running_var f4 [5]
0	0x3f81c245	1.0137411
1	0x3f7f01e8	0.99612284
2	0x3f728a6b	0.9474246
3	0x3f80014e	1.0000398
4	0x3f7dfc43	0.99213046

model.1.weight f4 [64, 5]
0	0xbf0fc0f7	-0.56153816
1	0x3f05f263	0.5232298
2	0xbd1aadfa	-0.037763573
3	0xbdaba410	-0.08380902
4	0xbbf051a0	-0.007333949
5	0xbea9750b	-0.3309711
6	0x3c60c9b9	0.013719969
7	0x3dfdba57	0.12389057
8	0xbe5253af	-0.20539735
9	0x3ed5054d	0.41605607
10	0x3ed48c27	0.41513178
11	0x3efbb5ef	0.49162242
12	0x3e9da7d2	0.307921
13	0x3d6102e5	0.0549344
14	0xbf036554	-0.5132649
15	0xbe68eb60	-0.22746038
16	0x3eed414c	0.4633888
17	0x3e1e15b7	0.15437971
18	0xbf1bfc79	-0.6093212
19	0xbdbfea91	-0.09370912
20	0xbd612ed6	-0.054976307
21	0xbf38ab52	-0.72136414
22	0xbcd84b37	-0.026403053
23	0x3e0fca93	0.1404212
24	0x3f15c15e	0.5849818
25	0x3f367dc3	0.7128565
26	0x3ea07b69	0.31344154
27	0xbe989aff	-0.29805753
28	0x3f1177d3	0.5682346
29	0x3ee52ff4	0.44763148
30	0x3e81db8d	0.25362816
31	0xbf40a0b8	-0.7524524
32	0x3e687864	0.22702175
33	0x3d6f64b5	0.05844565
34	0x3f1917cb	0.5980193
35	0x3e6247a2	0.22097638
36	0xbd7043b6	-0.058658324
37	0x3e9cf092	0.3065229
38	0x3e87f67f	0.2655525
39	0xbe05d425	-0.13069208
40	0x3edf58a8	0.43622327
41	0x3f01adac	0.5065563
42	0xbe7396f4	-0.23788053
43	0x3f20b260	0.6277218
44	0x3c48f98a	0.012266526
45	0xbe57c0a8	-0.21069586
46	0xbf5efe18	-0.87106466
47	0xbeab9df5	-0.3351895
48	0x3e166111	0.14685465
49	0x3f3791e7	0.71707004
50	0x3ed4e819	0.41583326
51	0x3e6d3f9d	0.23168798
52	0xbeab5364	-0.3346206
53	0x3efff819	0.4999397
54	0x3e844cd2	0.2583986
55	0x3f4c8296	0.7988676
56	0xbe8e0083	-0.27734765
57	0x3d2d3e90	0.042295992
58	0x3f28a46e	0.658759
59	0xbd0ffb21	-0.035151605
60	0xbdae77b3	-0.085189246
61	0xbed4e9e5	-0.41584697
62	0xbd6f394b	-0.05840425
63	0x3f117222	0.5681478
64	0xbcabf768	-0.020991996
65	0xbf07deb0	-0.5307417
66	0xbdaf4327	-0.0855773
67	0x3f094e9e	0.53635585
68	0xbe8a476a	-0.2700761
69	0x3e55bc06	0.20872506
70	0xbda28595	-0.07935635
71	0xbf0a68a2	-0.54065907
72	0x3e2bdfe9	0.16784634
73	0x3ea4b9a9	0.32172897
74	0xbd95de59	-0.073178
75	0xbe8a9455	-0.27066293
76	0xbecc2580	-0.3987236
77	0xbe964fe1	-0.29357818
78	0x3e61e551	0.22060134
79	0x3f22d26f	0.63602346
80	0x3ed28648	0.41118073
81	0x3e9b03a2	0.3027621
82	0xbe869e25	-0.2629253
83	0x3ee2feda	0.4433506
84	0xbeec1d02	-0.4611588
85	0x3dbc4737	0.09193271
86	0x3f351cbf	0.7074699
87	0x3e6b335b	0.2296881
88	0xbd9af9e3	-0.07567193
89	0xbf34a07d	-0.70557386
90	0xbe79861e	-0.24367568
91	0x3f438f43	0.76390475
92	0x3dc9c97e	0.09852885
93	0x3ea01012	0.3126226
94	0xbf0bd135	-0.546161
95	0x3f3d8169	0.7402559
96	0xbf28415c	-0.6572473
97	0xbe4e9978	-0.20175731
98	0x3f1c17be	0.6097373
99	0x3ea73f83	0.32665643
100	0x3d89008e	0.06689559
101	0x3ecb9b6a	0.3976701
102	0xbddc40e4	-0.107545644
103	0xbcae7d2d	-0.021299923
104	0xbeca3d62	-0.39499956
105	0xbebb4e0e	-0.36582989
106	0x3e83e16e	0.25757927
107	0xbd812843	-0.063065074
108	0xbeda1924	-0.42597306
109	0xbeea1575	-0.45719495
110	0xbeb620af	-0.3557181
111	0xbe13edae	-0.14446136
112	0x3e9a9a0f	0.30195662
113	0xbedaf319	-0.42763594
114	0x3ebbfd36	0.36716622
115	0xbd96cc1f	-0.07363152
116	0xbda78865	-0.08180312
117	0xbe117b0e	-0.14207098
118	0x3e8d0c8e	0.2754864
119	0x3e6ea66c	0.23305672
120	0xbf06845e	-0.52545726
121	0x3eb88486	0.36038607
122	0x3e0c2fc9	0.13690104
123	0xbf2a7291	-0.66581064
124	0xbd5a10bd	-0.05323862
125	0xbe36e404	-0.17860419
126	0x3f3a1c0f	0.72699064
127	0xbdc67d0b	-0.09691819
128	0xbd024736	-0.031806193
129	0xbf20b6e3	-0.62779063
130	0xbf15c863	-0.5850889
131	0xbeff8b29	-0.49910858
132	0x3e97bb78	0.29635215
133	0xbec51428	-0.3849194
134	0xbe021f5e	-0.12707278
135	0x3ed5f089	0.41785076
136	0xbede8b21	-0.43465522
137	0xbe40fb62	-0.18845895
138	0x3f257442	0.6463052
139	0x3eaf9da4	0.34299958
140	0xbf158861	-0.5841122
141	0x3ed071c3	0.40711793
142	0xbc82cd32	-0.015966985
143	0xbe3c55a2	-0.18392041
144	0x3e364d9d	0.17803045
145	0xbf1becbc	-0.60908103
146	0xbf0580c4	-0.52149606
147	0x3ebb0f4f	0.36535117
148	0xbf029670	-0.510108
149	0x3e1586fb	0.14602272
150	0xbe6eb0f9	-0.23309697
151	0xbf692639	-0.9107395
152	0x3e806c56	0.25082654
153	0x3ef8e6a8	0.48613477
154	0x3eb31d1e	0.34983152
155	0xbdbc54eb	-0.09195884
156	0x3f4cabf4	0.7994988
157	0x3db1bbbe	0.08678387
158	0x3d9c8799	0.07643051
159	0x3e1cba21	0.15305378
160	0x3f16f5a4	0.5896857
161	0xbf327043	-0.6970255
162	0x3ebaa2ce	0.36452335
163	0x3d175975	0.036950547
164	0x3ec794df	0.38980767
165	0xbf139101	-0.57643133
166	0x3e143271	0.14472367
167	0xbcced1e5	-0.02524657
168	0xbf089324	-0.5334952
169	0xbaac5027	-0.0013146446
170	0x3c63445f	0.013871281
171	0x3e4ade2a	0.19811311
172	0x3ca34ca0	0.019933999
173	0xbd2707dc	-0.04077898
174	0xbf0ff7e0	-0.562376
175	0x3db3a836	0.08772318
176	0xbd1f5e0d	-0.038908053
177	0xbc857ecb	-0.016295811
178	0xbef5c1dd	-0.47999468
179	0x3e49fe34	0.19725877
180	0x3e1de181	0.15418054
181	0x3d105df6	0.035245858
182	0x3d268d78	0.04066226
183	0xbe51b324	-0.20478493
184	0xbf043af2	-0.51652443
185	0xbe831514	-0.2560202
186	0x3e33632b	0.17518298
187	0x3d63057a	0.055425145
188	0xbef244e6	-0.4731819
189	0x3d2600cf	0.040528115
190	0x3ec9f7df	0.39446923
191	0xbf18d5b3	-0.5970108
192	0xbc62c26f	-0.013840302
193	0xbcde127b	-0.027108422
194	0x3e82a0fc	0.25513446
195	0x3d60a83b	0.054847937
196	0xbf31652e	-0.6929501
197	0x3e62cf77	0.22149454
198	0x3e028467	0.1274582
199	0x3e815aa4	0.25264466
200	0xbea2ee9e	-0.31822675
201	0xbf0470aa	-0.5173441
202	0xbedc6610	-0.43046618
203	0x3db8df19	0.090269275
204	0xbe12698a	-0.14298072
205	0x3bba2a97	0.0056813466
206	0xbe837b69	-0.25680092
207	0x3ee3ef1b	0.4451836
208	0xbe4f91e8	-0.20270503
209	0x3ec80a3a	0.39070302
210	0x3ea2e94e	0.31818622
211	0x3e8ff739	0.28118303
212	0x3ec21bc0	0.37911797
213	0x3efbc944	0.4917699
214	0xbe98bc8b	-0.29831347
215	0x3e85702d	0.26062146
216	0xbf3c984b	-0.7366988
217	0x3d6b2b74	0.057414487
218	0x3e9248c8	0.28571153
219	0x3eb19e8c	0.34691274
220	0x3f28c5f4	0.6592705
221	0xbe89dc9f	-0.26926133
222	0xbe831ff1	-0.25610307
223	0x3ef3acb5	0.47592703
224	0x3ecd9833	0.4015518
225	0x3e80b0c5	0.25134864
226	0x3e407711	0.1879542
227	0xbe71fada	-0.23630849
228	0x3db16486	0.086617514
229	0xbecf36bf	-0.40471455
230	0x3ec2d21b	0.38050923
231	0xbf8585d6	-1.0431468
232	0x3e9480ae	0.29004425
233	0xbe443298	-0.19159925
234	0x3f3cd550	0.7376299
235	0x3e0c5c38	0.13707054
236	0x3e07ebd8	0.13273561
237	0xbdb40768	-0.08790475
238	0x3f1839f9	0.5946346
239	0x3eedd44d	0.46451035
240	0xbeae37b4	-0.34026873
241	0x3f83c5f4	1.0294785
242	0xbd5832d9	-0.052782867
243	0x3e7df669	0.2480103
244	0xbf3a1f9c	-0.7270448
245	0x3d14fe0d	0.036375094
246	0xbf740abe	-0.9532889
247	0x3de52765	0.111891545
248	0x3dc6b4f7	0.09702485
249	0x3f39611d	0.7241381
250	0x3d7ec2ff	0.06219768
251	0x3d155de7	0.036466505
252	0x3ec7e2c9	0.3904021
253	0x3d05cad2	0.032664128
254	0xbe68e12d	-0.22742148
255	0x3dcdb1d4	0.10043684

model.1.bias f4 [64]
0	0xbe36ba18	-0.17844427
1	0x3e7e9a43	0.24863534
2	0xbe039457	-0.12849556
3	0xbe860f4b	-0.26183543
4	0xbefcec67	-0.4939911
5	0x3e36e195	0.1785949
6	0xbec7b1a7	-0.39002725
7	0xbe7bed77	-0.24602304
8	0xbde9e53d	-0.11420677
9	0xbf00de60	-0.5033932
10	0xbe105152	-0.14093521
11	0x3e288b68	0.1645943
12	0x3f030204	0.5117495
13	0x3eca3e7e	0.39500803
14	0xbee9a3b7	-0.45632717
15	0xbf094632	-0.53622735
16	0xbeaa2d8d	-0.33237877
17	0x3f30d204	0.6907046
18	0x3f38009f	0.7187595
19	0x3f020eac	0.5080364
20	0x3d67e324	0.056613103
21	0xbe900ae6	-0.28133315
22	0x3df9497f	0.121722214
23	0x3dc2e6b4	0.095166594
24	0xbea783e6	-0.32717818
25	0x3ecdcce9	0.40195397
26	0x3e7e4fb3	0.2483509
27	0x3eca4bdc	0.39511
28	0xbda38a83	-0.079854034
29	0x3eefebf8	0.46859717
30	0xbf65e577	-0.8980326
31	0x3f1d69ad	0.61489373
32	0x3df5c6be	0.12000798
33	0xbe8b76e6	-0.2723915
34	0x3f4eb50e	0.8074502
35	0xbf208f05	-0.6271823
36	0xbde4d279	-0.11172957
37	0xbed427fb	-0.41436753
38	0x3f08f2dd	0.5349558
39	0xbf419db1	-0.75631243
40	0xbf117a86	-0.5682758
41	0x3eb2b771	0.3490558
42	0x3e58f141	0.21185781
43	0xbde812c5	-0.11331705
44	0x3d46d510	0.048543036
45	0xbe7acf24	-0.2449308
46	0xbf849bfc	-1.0360103
47	0x3f119ad8	0.568769
48	0x3f705bd8	0.9389014
49	0xbf519dcb	-0.818814
50	0x3f290661	0.6602536
51	0x3dbc4ffb	0.091949426
52	0x3f2b2093	0.6684658
53	0x3ec5804b	0.38574442
54	0x3d39ca9b	0.045359235
55	0xbe7c46a2	-0.2463632
56	0xbeaf9407	-0.34292623
57	0x3f2d257b	0.67635316
58	0xbebb9d3c	-0.36643398
59	0xbf477a0c	-0.77920604
60	0xbe82580b	-0.25457796
61	0xbee2e41d	-0.44314662
62	0xbe35c709	-0.17751707
63	0x3f090be8	0.5353379

model.3.weight f4 [32, 64]
0	0xba9ddf68	-0.001204473
1	0x3d71d2ff	0.059039112
2	0xbd2273ae	-0.039661102
3	0x3db4d3ed	0.08829484
4	0xbeab871d	-0.3350152
5	0x3db51d93	0.088435315
6	0xbe2b27a1	-0.16714336
7	0xbec3a4db	-0.38211712
8	0xbcb8eff3	-0.022575354
9	0xbeb8bea4	-0.36082947
10	0xbe0c49ee	-0.13700077
11	0xbe825535	-0.25455633
12	0xbd848d6b	-0.06472286
13	0x3e0635fa	0.13106528
14	0xbedf344b	-0.43594584
15	0xbf05b4d3	-0.5222904
16	0x3dba18da	0.09086771
17	0x3f1cbc22	0.6122457
18	0x3f2d4399	0.6768127
19	0xbda13889	-0.07872111
20	0xbdbc2e64	-0.09188536
21	0xbc9c3f12	-0.019073043
22	0x3c932ab3	0.017964697
23	0xbdcad9c2	-0.09904815
24	0x3c40313e	0.01173049
25	0x3e718157	0.23584495
26	0x3d5d5af7	0.05404183
27	0xbd8cc052	-0.0687262
28	0xbd4f3183	-0.050584327
29	0x3de2765b	0.11057731
30	0xbf76a8b1	-0.9635115
31	0x3eb6cb9f	0.35702226
32	0x3d2fa2a9	0.042879734
33	0x3bfa5bf3	0.0076403557
34	0x3f40f915	0.7538007
35	0xbe1358b0	-0.143893
36	0xbdfe1ec4	-0.12408212
37	0x3b9cf91d	0.004790439
38	0xbdb9a89c	-0.09065363
39	0xbf0c3499	-0.5476776
40	0xbee36fde	-0.44421285
41	0x3c74939f	0.014927774
42	0x3db2d6d3	0.08732381
43	0xbea215bf	-0.31657216
44	0xbde0a689	-0.10969264
45	0xbcc1fa42	-0.023678903
46	0xbf78cf59	-0.9719139
47	0x3d4b9b84	0.049708858
48	0x3fa15fd3	1.2607368
49	0xbf819088	-1.0122232
50	0x3ebc04da	0.3672245
51	0x3ed3f361	0.4139662
52	0x3ee00df6	0.4376065
53	0x3e885a57	0.26631424
54	0x3de848f5	0.113420404
55	0xbeaca913	-0.33722743
56	0x3e443c8b	0.1916372
57	0x3d0dc55e	0.034612052
58	0xbe85451b	-0.26029286
59	0xbe126b4f	-0.14298747
60	0xbdb842d0	-0.089971185
61	0x3d4f7230	0.050646007
62	0x3df980d7	0.121827774
63	0x3e5852d2	0.21125343
64	0x3dc0d280	0.0941515
65	0xbcb9b7e5	-0.022670696
66	0x3dae8def	0.085231654
67	0x3ea5a948	0.32355714
68	0xbd0e3aa5	-0.034723897
69	0xbc135257	-0.008991799
70	0xbd3652be	-0.044512503
71	0xbe087b6e	-0.13328335
72	0xbd43bda6	-0.047788285
73	0xbe24d507	-0.16096888
74	0xbe12c607	-0.14333354
75	0xbe9a1d23	-0.30100355
76	0xbe84baf9	-0.259239
77	0xbc7f3071	-0.015575514
78	0xbdb3dc48	-0.0878225
79	0xbdea1ef6	-0.114316866
80	0xbd301d46	-0.042996667
81	0x3e5777d6	0.21041808
82	0x3d311c04	0.04323961
83	0xbe94df66	-0.2907669
84	0x3d78d36e	0.06074851
85	0x3c80ba75	0.01571391
86	0xbdee5c7e	-0.11638735
87	0xbe1fed7f	-0.15617941
88	0x3d9b7ee7	0.07592564
89	0x3e65c975	0.22440131
90	0xbdd4cfec	-0.103912205
91	0xbdd4b8a3	-0.10386779
92	0x3e5b2e8e	0.21404478
93	0x3c00dcf2	0.0078651775
94	0xbdb4278a	-0.08796604
95	0x3e857f0b	0.2607349
96	0xbdae6dd1	-0.085170396
97	0x3d04358e	0.032277636
98	0x3c8402ed	0.016114676
99	0xbd82b5fb	-0.06382366
100	0x3de11e8e	0.10992156
101	0xbbc03816	-0.005866061
102	0xbd0b114d	-0.033952046
103	0xbdbbe3be	-0.09174298
104	0xbdbb9d6f	-0.091608874
105	0x3d73ffbf	0.05957007
106	0xbe3f331e	-0.18671843
107	0xbe3df0b4	-0.18548852
108	0xbeb90417	-0.36135933
109	0x3e194097	0.14966045
110	0xbe15b673	-0.1462038
111	0xbd0c9743	-0.034323942
112	0x3d78246a	0.060581602
113	0xbe54f3df	-0.20796154
114	0xbcc62330	-0.0241867
115	0x3d8b19a7	0.06792002
116	0xbe4aa6e3	-0.19790225
117	0x3b350525	0.0027621475
118	0xbd0ed0fb	-0.034867268
119	0xbe139c32	-0.14415053
120	0x3e29b802	0.165741
121	0xbd997b11	-0.07494176
122	0xbdc150a3	-0.09439208
123	0xbdabab0f	-0.08382236
124	0xbdf8b4be	-0.12143849
125	0xbd14e9ed	-0.0363559
126	0x3e1a5200	0.15070343
127	0xbd28c3a8	-0.041202217
128	0x3d438fd4	0.047744587
129	0xbd055a2f	-0.03255671
130	0x3dc48e56	0.09597461
131	0x3e178e75	0.14800437
132	0xbe8f47df	-0.2798452
133	0xbe1064e2	-0.14100984
134	0xbd80d1ae	-0.06289993
135	0xbd45f1a4	-0.04832615
136	0xbdd47fd4	-0.10375944
137	0xbe1c6f14	-0.15276748
138	0xbd3136fd	-0.04326533
139	0xbe4cc7cb	-0.1999809
140	0xbe5707e3	-0.20999102
141	0xbde4d28a	-0.1117297
142	0xbe41414e	-0.18872568
143	0xbebe1712	-0.37126976
144	0x3de64808	0.112442076
145	0x3e01f2ad	0.1269023
146	0x3e845815	0.2584845
147	0xbe6bdce6	-0.23033485
148	0x3e15f278	0.14643276
149	0x3e8f33e8	0.2796929
150	0x3dabb747	0.08384567
151	0xbe15e8df	-0.14639615
152	0x3ce48916	0.027897399
153	0x3e09c8ea	0.13455549
154	0x3d3ffcc2	0.046871908
155	0xbe135211	-0.14386775
156	0x3dea87cb	0.11451682
157	0xbca59ce6	-0.020216417
158	0xbe7fc358	-0.24976861
159	0x3de41551	0.11136878
160	0xbe956708	-0.2918017
161	0xbd7d0aee	-0.061778
162	0x3dafcff9	0.085845895
163	0x3d1358f6	0.03597351
164	0x3e24edda	0.16106358
165	0xbd62010e	-0.055176787
166	0xbe544fa8	-0.20733511
167	0xbdd63513	-0.10459342
168	0xbd8cea8c	-0.06880674
169	0xbe66fdff	-0.2255783
170	0x3dab8340	0.08374643
171	0xbe6a402c	-0.22876042
172	0xbdf19aa1	-0.11797071
173	0x3de2a11a	0.11065884
174	0xbe63ec47	-0.22258101
175	0xbd418e9d	-0.047255147
176	0x3ed36bf0	0.41293287
177	0xbe78a201	-0.2428055
178	0xbc7704ca	-0.015076825
179	0x3e0ab3fe	0.13545224
180	0xbd4c0238	-0.049806803
181	0x3e89f3e9	0.269439
182	0xbc5a942c	-0.013340991
183	0xbd462a4a	-0.048380174
184	0x3d6ad96d	0.05733626
185	0x3cc3b325	0.023889134
186	0x3e3d3e6e	0.18480846
187	0x3dc75832	0.09733619
188	0xbe31a529	-0.1734816
189	0x3ddab862	0.106796995
190	0xbc774a3f	-0.015093385
191	0x3bca05d1	0.006165244
192	0x3e4ce100	0.20007706
193	0x3c8c6c8a	0.0171416
194	0xbde4e454	-0.11176363
195	0x3decfed6	0.115720436
196	0x3e05df62	0.13073495
197	0xbdf2cedd	-0.11855862
198	0xbd84b8cf	-0.06480562
199	0xbc0f9b18	-0.008765005
200	0xbea295eb	-0.31755003
201	0x3df192df	0.117955916
202	0xbe7d4c0e	-0.24736044
203	0xbef48a1a	-0.47761613
204	0xbe92235d	-0.28542605
205	0x3e4b8b0d	0.19877262
206	0xbe5153b2	-0.20442083
207	0x3e30b031	0.17254712
208	0xbd9641c5	-0.07336763
209	0xbe39209b	-0.18078844
210	0xbc032585	-0.008004551
211	0xbeecf474	-0.46280253
212	0x3ceb4b48	0.02872242
213	0xbbb57bfa	-0.005538461
214	0x3df845f5	0.12122718
215	0x3d68613a	0.056733347
216	0x3e987c66	0.29782408
217	0x3e14aa1f	0.14518021
218	0x3e922e67	0.28551027
219	0xbea10355	-0.31447855
220	0x3e843efc	0.25829303
221	0x3e8cbf76	0.27489823
222	0xbdaa8992	-0.08327021
223	0xbd3f9607	-0.046773937
224	0xbe84718d	-0.25867882
225	0x3e7db6fd	0.24776836
226	0xbc3f5a72	-0.011679279
227	0x3d4ad0a4	0.04951538
228	0xbd7d006b	-0.061767977
229	0x3e886c32	0.26645046
230	0xbe8b338b	-0.27187762
231	0xbd9d1ae1	-0.07671142
232	0x3d307e1e	0.043089025
233	0xbc386886	-0.011255389
234	0xbe48af34	-0.19598085
235	0xbd530164	-0.051514998
236	0xbe8d5e0f	-0.27610824
237	0xbce7246b	-0.028215608
238	0x3d71a992	0.058999605
239	0xbeb674a3	-0.35635862
240	0xbd7dac1a	-0.061931707
241	0xbd6fe1a2	-0.05856479
242	0xbe135bdd	-0.14390512
243	0x3e404daf	0.18779634
244	0x3c9b97a9	0.018993216
245	0x3e143d6e	0.14476559
246	0xbc8d59f6	-0.01725481
247	0xbd01915e	-0.031632774
248	0x3ea0bd61	0.31394485
249	0xbe7bc4d7	-0.24586807
250	0xbd789b58	-0.060695022
251	0x3c9d7849	0.019222395
252	0x3ca4f809	0.020137804
253	0x3ca80864	0.020511813
254	0x3e804d3a	0.2505892
255	0xbccc5eeb	-0.024947604

model.3.bias f4 [32]
0	0x3f59a2be	0.8501395
1	0x3cc89583	0.024485355
2	0xbc316b90	-0.010828868
3	0xbe4cd6fd	-0.20003887
4	0x3f822a29	1.0169116
5	0xbe146a18	-0.14493597
6	0xbebbc944	-0.3667699
7	0x3e4a98bf	0.1978483
8	0x3e454b27	0.1926695
9	0xbe131ac8	-0.14365685
10	0x3f1f6bbe	0.62273777
11	0x3e394935	0.18094333
12	0x3e7e5cf7	0.24840151
13	0xbe164551	-0.1467488
14	0xbe203e95	-0.15648873
15	0x3d46db3f	0.048548933
16	0x3cec51e7	0.028847648
17	0xbe89ab31	-0.2688842
18	0x3f50e332	0.8159667
19	0xbe8146d5	-0.25249353
20	0x3e1c886f	0.1528642
21	0xbd9ba0cb	-0.07599028
22	0x3f839f02	1.02829
23	0xbd970a6c	-0.07375035
24	0x3e535a95	0.20640023
25	0xbf7d1ace	-0.98869026
26	0xbe42ae0c	-0.19011706
27	0xbf82fdae	-1.0233667
28	0xbe287c88	-0.16453755
29	0xbd931c81	-0.07183171
30	0xbcb1c974	-0.021702506
31	0x3d869f7d	0.06573389

model.5.weight f4 [16, 32]
0	0x3e39e3c0	0.18153286
1	0x3dd9e429	0.10639221
2	0x3e84f618	0.25969005
3	0x3e970af2	0.29500538
4	0x3e05de97	0.13073193
5	0x3e2eab1d	0.17057462
6	0x3e96a36c	0.29421556
7	0xbea3f476	-0.32022446
8	0xbeb7fa07	-0.35932943
9	0x3e59d6d7	0.21273361
10	0x3e474e61	0.19463493
11	0xbe889b22	-0.26680857
12	0x3d0dc417	0.034610834
13	0x3c72c137	0.014816574
14	0x3e130a60	0.14359426
15	0xbe9321f8	-0.28736854
16	0xbe7cb8de	-0.24679896
17	0x3e870b3c	0.2637576
18	0x3e5e1f15	0.21691544
19	0x3e12ae58	0.1432432
20	0x3dfc8edb	0.12331935
21	0x3d0297c7	0.031883027
22	0xbccaa7b2	-0.024738166
23	0x3d6fc062	0.05853308
24	0xbea7fec8	-0.3281157
25	0xbe47affa	-0.19500723
26	0x3ebc3abb	0.36763558
27	0x3d691c33	0.05691166
28	0xbe2de646	-0.16982374
29	0x3c7e09c3	0.015505257
30	0xbda260e3	-0.07928636
31	0x3dd0b978	0.10191625
32	0xbdfe6c1c	-0.12422964
33	0xbe20de83	-0.15709881
34	0xbe3ffab4	-0.1874798
35	0x3e2ed116	0.17071947
36	0xbe4f1ecb	-0.2022659
37	0xbd5479c6	-0.051873945
38	0xbe98f4a4	-0.29874146
39	0x3e72e3a8	0.23719656
40	0x3ded6ff0	0.11593616
41	0x3e8551e3	0.26039037
42	0xbe93b23e	-0.28846925
43	0x3db14dc1	0.086574085
44	0xbdc0b9c1	-0.0941043
45	0xbe69478a	-0.22781196
46	0xbdda55d7	-0.10660904
47	0xbdf49999	-0.11943359
48	0xbc6cef64	-0.014461372
49	0xbe16d528	-0.1472975
50	0xbe95513f	-0.29163548
51	0xbd09c374	-0.033633664
52	0xbd3adf9d	-0.04562341
53	0xbe6d472d	-0.23171683
54	0xbef1bdfe	-0.47215265
55	0xbe7f2e6e	-0.24920055
56	0x3e062f83	0.13104062
57	0x3e1eed6f	0.15520261
58	0xbd45860f	-0.04822355
59	0x3ea2826e	0.31740135
60	0xbe501b01	-0.20322801
61	0xbea943b7	-0.33059475
62	0xbc1081b7	-0.008819989
63	0x3e2d77a2	0.16940168
64	0x3e7abbd2	0.2448571
65	0x3edbad9d	0.42905894
66	0x3ea5930a	0.32338744
67	0x3eaf5565	0.34244838
68	0x3e1648e6	0.14676246
69	0x3d3d076d	0.04614966
70	0x3e81e04b	0.25366434
71	0xbe87c0f2	-0.26514393
72	0xbd8552d1	-0.065099366
73	0x3cf8f3c8	0.030389681
74	0x3da7501f	0.08169579
75	0xbea8a244	-0.329363
76	0xbca79b13	-0.020459687
77	0xbdecaba3	-0.115561746
78	0xbd66962c	-0.05629556
79	0xbe78ff81	-0.24316217
80	0xbe04e4ff	-0.1297798
81	0x3e3f04bb	0.18654148
82	0x3d95acf1	0.073083766
83	0x3e1ae0aa	0.15124765
84	0xbd1cc835	-0.03827687
85	0xbe3d2494	-0.18470985
86	0x3e92c3ae	0.28664917
87	0x3e82cfc6	0.25549144
88	0xbe9b47ea	-0.30328304
89	0xbdbb8045	-0.09155325
90	0x3e3040f6	0.1721228
91	0x3cc37f36	0.02386437
92	0x3da14094	0.078736454
93	0xbe9d8360	-0.30764294
94	0xbea26277	-0.31715748
95	0x3e84eb9b	0.25961003
96	0xbe65c501	-0.22438432
97	0xbee09735	-0.43865362
98	0xbefb4a39	-0.49080065
99	0xbf05f961	-0.52333647
100	0xbe601ac9	-0.21885218
101	0x3e47b908	0.19504178
102	0xbec6f036	-0.3885514
103	0x3f17ef70	0.5934973
104	0x3e948dd6	0.29014462
105	0xbea68c74	-0.32529032
106	0xbec0c514	-0.3765036
107	0x3eed296b	0.46320662
108	0xbe8d02be	-0.27541155
109	0x3e797dea	0.24364439
110	0x3e5b624f	0.2142422
111	0x3e7366d5	0.23769696
112	0x3e56a44f	0.20961116
113	0xbe964195	-0.2934691
114	0xbe240a6a	-0.16019598
115	0xbedb2d09	-0.42807797
116	0xbe65dc93	-0.22447424
117	0x3e8f3778	0.27972007
118	0xbd447144	-0.04795958
119	0xbe17c5d0	-0.14821553
120	0x3ed3c62e	0.41362137
121	0x3e089131	0.13336636
122	0xbea1ebe2	-0.31625277
123	0x3d1e3e54	0.03863366
124	0x3dae6fd6	0.08517425
125	0x3ef02514	0.46903288
126	0x3ebfac04	0.37435925
127	0xbe530b3d	-0.20609756
128	0xbe8a6190	-0.2702756
129	0x3d87eda8	0.06637126
130	0xbe378693	-0.1792243
131	0x3e3db150	0.1852467
132	0xbdf82c67	-0.12117844
133	0xbf0d13da	-0.55108416
134	0xbbb17c1d	-0.005416407
135	0xbd851d02	-0.064996734
136	0xbd4819c1	-0.048852686
137	0x3e26e018	0.16296422
138	0xbf3d4667	-0.7393555
139	0xbc0eb10e	-0.008709205
140	0x3ec144a3	0.37747678
141	0xbeaba361	-0.33523086
142	0xbe9fcada	-0.3120945
143	0xbe1df594	-0.15425712
144	0xbe8bad6d	-0.2728075
145	0x3e665090	0.2249167
146	0xbe12483b	-0.14285366
147	0x3e945be1	0.28976348
148	0x3e46da54	0.19419223
149	0xbf03503e	-0.51294315
150	0xbf119b30	-0.5687742
151	0xbeac8c93	-0.33701
152	0x3db5b46a	0.08872302
153	0x39923307	0.00027885308
154	0xbda7e202	-0.081974044
155	0x3f10c946	0.5655712
156	0xbe985450	-0.29751825
157	0xbdf61e62	-0.12017514
158	0xbe4f4f0d	-0.20244999
159	0x3dabd990	0.08391106
160	0xbc04957e	-0.008092282
161	0xbc0a59b0	-0.008444235
162	0x3ca2293b	0.01979505
163	0xbeb037c4	-0.34417546
164	0x3e4b79b8	0.19870651
165	0x3eac384f	0.3363671
166	0x3dbd6651	0.09248031
167	0x3d802c3b	0.06258436
168	0x3d10474d	0.035224248
169	0xbe3fd1ec	-0.18732423
170	0x3c551a00	0.013006687
171	0x3d06829a	0.032839395
172	0xbe24b115	-0.16083176
173	0x3ec35e02	0.3815766
174	0x3ebed052	0.3726831
175	0x3cce6b8d	0.025197769
176	0x3eb4c318	0.35305095
177	0xbca8a3de	-0.02058595
178	0x3e480399	0.19532622
179	0xbe44824f	-0.19190334
180	0xbe6f7d31	-0.233876
181	0x3ed90dab	0.4239324
182	0x3e211c4f	0.15733455
183	0x3e645569	0.22298206
184	0x3e26be4d	0.16283531
185	0xbe6e2029	-0.23254456
186	0xbde31b0d	-0.11089144
187	0xbe861fbf	-0.26196095
188	0x3dfb6a16	0.12276094
189	0x3e3e35cd	0.18575211
190	0x3e8af563	0.2714034
191	0xbe855769	-0.2604325
192	0xbef0d44c	-0.4703697
193	0xbeb89b3f	-0.36055943
194	0xbefc3760	-0.49260998
195	0xbe60f078	-0.21966732
196	0xbe570d70	-0.2100122
197	0xba850c9c	-0.0010150853
198	0xbf058dc3	-0.52169436
199	0x3ef0e574	0.4705006
200	0x3eea0c96	0.45712727
201	0xbe8bd423	-0.27310285
202	0xbefdbfcc	-0.49560392
203	0x3f222e48	0.6335187
204	0xbe5a02cd	-0.21290131
205	0x3e70ab0e	0.23502752
206	0xbdccbf95	-0.09997479
207	0x3e7e92df	0.24860714
208	0x3ea8d655	0.32976022
209	0xbe91a880	-0.28448868
210	0xbe18aadc	-0.14908928
211	0xbf1264c8	-0.5718503
212	0x3bbc74cf	0.0057512294
213	0xbb26b8a4	-0.0025439644
214	0xbd6c226a	-0.057650007
215	0x3d623c85	0.055233497
216	0x3eec64d0	0.46170664
217	0x3e121969	0.14267506
218	0xbef53d08	-0.47898126
219	0x3d3762a9	0.044771824
220	0x3dda0747	0.10645919
221	0x3d2882e1	0.04114044
222	0x3e5ea22b	0.2174155
223	0xbcdb1e93	-0.026747977
224	0x3ec612b3	0.3868614
225	0xbb32b569	-0.0027268773
226	0x3dbd24b9	0.0923552
227	0x3d3addf2	0.04562182
228	0x3e526e7e	0.20549962
229	0x3e60b86f	0.21945356
230	0x3e70ffba	0.23535052
231	0xbe16a193	-0.14710073
232	0x3d8bfd8f	0.06835472
233	0xbe0d89e1	-0.13822128
234	0x3f13e689	0.57773644
235	0xbe6f00ac	-0.233401
236	0xbe8f4777	-0.2798421
237	0x3d3bac5e	0.04581868
238	0x3e79b3e4	0.24385029
239	0x3e662d30	0.22478175
240	0xbcdb7f86	-0.026794206
241	0x3de36578	0.11103338
242	0x3e45266f	0.19252943
243	0xbd1c00e1	-0.038086776
244	0xbbd4daf5	-0.0064958283
245	0x3eaf24bb	0.3420771
246	0x3ede6c03	0.4344178
247	0x3eb5d631	0.35514978
248	0x3daf8269	0.08569796
249	0x3dc9a671	0.09846199
250	0x3e458387	0.19288455
251	0xbe75396b	-0.23947684
252	0x3e19a26b	0.15003364
253	0xbbfce860	-0.007718131
254	0x3de7295d	0.11287186
255	0xbea2b582	-0.31779104

model.5.bias f4 [16]
0	0xbe977395	-0.2958037
1	0xbf4f2f22	-0.80931294
2	0xbe9a3fa9	-0.30126694
3	0x3dac0e19	0.084011264
4	0xbf56477f	-0.83702844
5	0xbe6f2c36	-0.23356709
6	0x3e5521c4	0.20813662
7	0x3f6098fd	0.8773344
8	0x3e3a01b4	0.18164712
9	0xbe2c33a3	-0.16816573
10	0x3eaf8d53	0.3428751
11	0xbf2b4092	-0.668954
12	0x3e7ea51f	0.24867676
13	0x3e9c4f69	0.30529335
14	0x3dd9b8ff	0.10630988
15	0xbda3d75f	-0.08000063

model.8.weight f4 [3, 16]
0	0xbeedebe5	-0.46469036
1	0xbecccb35	-0.39998785
2	0xbf2108fc	-0.62904334
3	0x3e72587c	0.23666567
4	0xbf294076	-0.66113985
5	0x3f29ed22	0.6637746
6	0x3f1e20cf	0.6176881
7	0x3f261899	0.64881283
8	0xbf7cbf25	-0.98729163
9	0xbeedae25	-0.46421924
10	0xbf879819	-1.0593292
11	0xbec6f749	-0.3886054
12	0x3f29e824	0.66369843
13	0x3f23e7d7	0.64025635
14	0xbf55f19b	-0.83571786
15	0xbf469021	-0.77563673
16	0xbe8895dc	-0.26676834
17	0x3f1b74f1	0.60725313
18	0xbee424c7	-0.4455931
19	0x3dfb218a	0.122622564
20	0x3f1e7553	0.6189777
21	0xbf39e3bb	-0.72613114
22	0x3efc4499	0.49271086
23	0xbf16e54c	-0.5894363
24	0x3f2e0744	0.67979836
25	0xbe94c57e	-0.29056925
26	0x3f2bd90b	0.67128056
27	0x3f0d6ca7	0.55243915
28	0x3ec671c4	0.3875867
29	0x3e6e77b2	0.23287848
30	0x3f29502c	0.6613796
31	0x3f586bf3	0.8453972
32	0x3f36e3f8	0.714416
33	0xbed3507e	-0.41272348
34	0x3f15f3b7	0.58575004
35	0xbf64b9d1	-0.89346033
36	0xbefc28fe	-0.49250025
37	0xbf3a2647	-0.72714657
38	0xbef7d26f	-0.48402736
39	0x3f09d696	0.5384306
40	0x3f260bce	0.6486176
41	0x3f4eced2	0.8078433
42	0x3ec5af03	0.38610086
43	0xbf1bffee	-0.6093739
44	0xbf10363e	-0.56332767
45	0xbf61b290	-0.8816309
46	0x3f39f009	0.7263189
47	0x3f226bc0	0.63445663

model.8.bias f4 [3]
0	0x3c9d0ac9	0.019170182
1	0xbebfdb37	-0.37471935
2	0x3e100477	0.14064203
