1_Neural Network Models/1_Code_Jupyter/synthetic_classifier.pth (torch, 16970 bytes, 6 tensors)

net.0.weight f4 [64, 20]
00000000: 48b0 5dbe 7de4 743b a8cd beba e81f 043e
00000010: a99b a33d aa00 f2bc 8d1e 68be 99b1 97bd
00000020: f605 fabd 5024 11be 87cb b03d 1199 783e
00000030: 2356 79bb 94bf 2d3d 0f57 773d dc41 fe3d
00000040: 213a 53bd 2816 493e d422 2c3e 9398 25bd
00000050: cc91 833c 274b 57be d7c5 52be 7b90 35be
00000060: 3868 b8bc 50a4 353e c30a e23c 1164 573e
00000070: 1585 0e3e 0afb f03d 6256 57be 7aaf 87bd
00000080: aaf7 d0bd 419e 35bc 5a56 1ebe 8085 0ebe
00000090: feb6 86bd 9534 23bd 638a b83d 55e2 413e
000000a0: 3167 023e 88cf ff3d 0075 6e3e 2a33 443e
000000b0: 9eca 22be 7f11 01bd 1b87 f8bd 829e 5c3e
000000c0: db7b c63d 9794 97bc 8efa 0abe 4dbb 41be
000000d0: 01ae 913d f19c 73be a015 11be 9665 d13c
000000e0: bacd 043d 76be 29be 58a8 58bd 4b6e cf3d
000000f0: 1feb f83b c1af 033e be47 e63d 6ae0 62be
00000100: a856 bbbd b0ed 3bbe 4c97 653d 40b7 483e
00000110: f1cc 39bc 5159 393e 6b45 3ebd c196 3c3e
00000120: efa0 183e fdd8 be3d be8f c93c 8cd2 493d
00000130: 51c4 5fbe 2c8d f5bd ec94 1cbb 8a88 1b3c
00000140: 1381 553e 55d1 e53d db92 f4bc 16b1 2f3e
00000150: 3fec 42be 3851 02be d21d f8bd bc84 493e
00000160: 141d 083e fe3d 3ebe efa0 8ebd 912b 743e
00000170: 108f febd c423 733d 839d 23be 1f09 033e
00000180: 6519 83bd 005e 693e c10c a3bd 65c7 02be
00000190: e88d b6bd b3ab 9bbd 6baa babd cf8e 653d
000001a0: 583f 593d 559b c13d c664 3abe 063b 03be
000001b0: fc1e 19be 5402 683e 40f9 503d 1377 553e
000001c0: e60b 283d 61cf c1bd 34cc 963d 3a1a edbb
000001d0: fe77 ddbb a739 513e 99f9 d83d ed89 463e
000001e0: 0a3a d1bd d357 6a3e 4862 d83d 8f4e 8c3d
000001f0: 5655 04be d10e 20bd 3a6f 213e 94ea 5dbe
00000200: c48e 58be 62f1 433e cf02 113c 3e8b 4e3d
00000210: 7b56 1fbe 1067 5a3d a877 c33b 1d98 c63d
00000220: 17e1 47be 107a 183e 65f0 bcbc 24ea a2bd
00000230: cf0a 6cbe ae5f 1a3d 1912 4bbe 46d2 71be
00000240: 71ad 563e 99cb 9c3d 6c80 6f3c 58ef 31be
00000250: aa99 2d3c 5d70 303e bf4c 20be 8dff 32bd
00000260: 6b65 5c3e 5286 423e 31a9 1f3e c121 283c
00000270: deea a9bd cd1d 073e 443a 1bbd 78ec 133e
00000280: adb5 31bc 07d1 96bd cd79 b13d 5409 1abe
00000290: fccb 19be d8ba 3abd ebe4 1cbe 0357 dbbd
000002a0: 3a9c 6d3e 92d6 15be f735 213e be8c 373d
000002b0: a54e 6a3d c17b bf3d 7428 263e 38d4 033c
000002c0: 6b98 b3bc 2d16 21be e7b1 823d 6911 6a3e
000002d0: 9fe4 cdbd 6361 dcbd 2e28 4ebe 4457 1fbd
000002e0: 0a69 debc e14c efbb 628c c73c 8489 ec3c
000002f0: 0a05 18bd e5b1 3ebd e01d e8bd dcb7 d8bd
00000300: 40dc a23d abad 4cbd 49fe 403e 3bbd 0dbe
00000310: 6b4a 3c3e a5a0 043d 3682 72be 5971 bf3c
00000320: 68c7 fd3b 8204 e53d 45e3 80be 77c9 e8bd
00000330: a2fc bbbd fea1 e4bd 41bb 28be 6af3 09bd
00000340: fb3b 54be 0e9e efbd ddbb 583d dbb0 3fbe
00000350: a6c6 34be 53f1 b53d 3d75 8e3d 28f1 c53b
00000360: 5ae2 803e 2d31 443e b698 393d d56e cfbd
00000370: 7f30 fdbd 292b f3bd d61a 9f3d c1ed 653e
00000380: 38aa 273d 1f4a eb3d 36a3 72bd 7fd4 1fbe
00000390: b01e 7bbd 7e97 8dbd 479b 913d 924b 8cbe
000003a0: cf67 19be 1102 16be 2559 d3bd e590 0b3e
000003b0: 0677 7e3d a5f9 f93d e3bf 1e3e f61b 263e
000003c0: 30f3 3ebe e55d 1bbe 4c41 3dbd a05d 293e
000003d0: 00a2 323d 32d3 98bd b429 32bc 62ec 78bd
000003e0: 2c41 67be 4f26 6b3d 0e32 96bb 6b22 cc3d
000003f0: b3b0 3b3e fc8d 38be f84c 21be 767f 22bd
-0.21649277 0.0037367635 -0.001455714 0.12902796 0.07988674 -0.029541332 -0.22667904 -0.07406921
-0.12208168 -0.14174008 0.0863257 0.2427714 -0.0038045726 0.04241903 0.06038576 0.124149054
-0.051569108 0.19637358 0.16810161 -0.04042871 0.016060732 -0.21024762 -0.20583282 -0.17730896
-0.022510633 0.17738461 0.027593022 0.21034266 0.13917954 0.11766632 -0.21029046 -0.066252664
-0.10203488 -0.011085094 -0.15462628 -0.13918114 -0.06577872 -0.039845068 0.0901077 0.18933995
0.12734677 0.12490755 0.2328682 0.19160143 -0.15897605 -0.031510826 -0.12135144 0.21544841
0.09691592 -0.01850347 -0.13572142 -0.18919106 0.07113267 -0.23790337 -0.14168406 0.025561135
0.03242276 -0.16576561 -0.05289492 0.101284586 0.007596388 0.12860014 0.112441525 -0.2215592
-0.09147388 -0.1835239 0.05605249 0.19601154 -0.011340366 0.18100478 -0.04645292 0.18416883
0.14905141 0.09318731 0.024604674 0.04927306 -0.21852233 -0.11989817 -0.0023892475 0.009493003
0.20850019 0.112215675 -0.029855182 0.17157397 -0.19035433 -0.12726295 -0.12115063 0.1967954
0.13292342 -0.18578336 -0.069642894 0.23844744 -0.12429631 0.05936028 -0.15978055 0.12796448
-0.06401328 0.22789764 -0.07961417 -0.12771375 -0.08913785 -0.076011084 -0.09114536 0.056044396
0.053038925 0.09453455 -0.18202505 -0.12815484 -0.14953226 0.22657138 0.051018953 0.20846204
0.041026972 -0.094633825 0.073631674 -0.0072357925 -0.006758689 0.20432149 0.10594482 0.19388552
-0.10216148 0.22885065 0.10565621 0.06850921 -0.12923178 -0.03907663 0.15765086 -0.21671516
-0.21148211 0.19135049 0.008850767 0.05042576 -0.15560333 0.053320944 0.005965192 0.09696982
-0.19519459 0.14890313 -0.023063848 -0.07954815 -0.23050998 0.037688904 -0.19831122 -0.23615369
0.209646 0.07656021 0.0146180205 -0.17376459 0.010595718 0.17230363 -0.15654276 -0.043700743
0.21523063 0.18996552 0.15591885 0.010261954 -0.082967505 0.13194962 -0.037897363 0.14445674
-0.010846538 -0.073640876 0.0866581 -0.15042621 -0.1501922 -0.045588344 -0.153217 -0.107099555
0.23204127 -0.14632633 0.15743242 0.044811957 0.057203908 0.09349776 0.16226369 0.008046202
-0.021923264 -0.15731116 0.063815884 0.22858204 -0.10053372 -0.107607625 -0.20132515 -0.038901582
-0.027149696 -0.007302866 0.024358932 0.028874166 -0.03711418 -0.046556372 -0.11333823 -0.105819434
0.079521656 -0.04997031 0.18847002 -0.13841717 0.18387763 0.032379765 -0.23682484 0.023369478
0.0077447183 0.111825004 -0.25173393 -0.11366551 -0.09179045 -0.1116371 -0.16477682 -0.033679403
-0.20726006 -0.117000684 0.052913535 -0.18719809 -0.17653903 0.088839196 0.06955955 0.006040711
0.25172693 0.19159384 0.045311652 -0.101285614 -0.123627655 -0.118734665 0.077687904 0.22453977
0.040933818 0.11488747 -0.05923768 -0.15608405 -0.061308563 -0.069136605 0.07109695 -0.27401406
-0.14981006 -0.14649226 -0.10319737 0.13629492 0.06212523 0.12205819 0.15502886 0.16221604
-0.18647456 -0.15172537 -0.04620485 0.16539621 0.043611526 -0.07462157 -0.010874201 -0.060772307
-0.22583455 0.05740958 -0.0045836037 0.09967502 0.18329124 -0.18022913 -0.15752017 -0.039672337

net.0.bias f4 [64]
00000000: 5bc9 a8bd 6eed a7bd 4fde 1d3e 796c a23d
00000010: 2e9f 823e e7ee ef3d 9937 b6bc 10da f7bc
00000020: b151 00bd 024f 31be 9758 773e 158e 273e
00000030: 2934 5abe 8991 633c 5d51 edbd 48d7 ac3b
00000040: b6a7 053e da08 29be 196e 3ebe 44cf 1abe
00000050: e4e5 3cbe 737e 5d3e 6b10 d43c 850a 36bc
00000060: 66af 633e e595 b0bd da2b 38be 2134 5fbe
00000070: bd02 00bc 6026 403e bf7e 20bd f7e8 843e
00000080: 6d78 42be 01e9 1c3e d19b f2bd c387 1d3e
00000090: b7bc 16bc 9bdc 443d 02a4 13be d94b 15bc
000000a0: 9f32 12be 6108 eabd a7d3 1f3e c66a 1f3d
000000b0: 30e2 e3bd e750 56bd b810 2c3e d182 9b3d
000000c0: 7a79 cc3d fd46 5b3e fb48 91bd c784 ac3d
000000d0: a4b9 c8bd 655a f83d c129 663e 9dfd febd
000000e0: a91a 0b3d cefd 1bbd f067 4c3e 331f 10bd
000000f0: 90bf e83d 1770 02be 9615 85bd 848c 9c3c
-0.082415305 -0.08199583 0.15416835 0.07930846 0.2551207 0.11715489 -0.022243308 -0.030255347
-0.031327907 -0.17315295 0.24154888 0.16362794 -0.2130896 0.013889679 -0.115877844 0.005274687
0.13052258 -0.16507283 -0.18596686 -0.15118128 -0.18447071 0.21630268 0.025886735 -0.0111109065
0.22234878 -0.0862234 -0.17985478 -0.2179723 -0.007813153 0.18764639 -0.039183374 0.25958988
-0.18991251 0.15323259 -0.11846126 0.1538382 -0.009200267 0.04806195 -0.14418033 -0.009112322
-0.14277123 -0.114273794 0.15608083 0.038920186 -0.11127126 -0.05232325 0.16803253 0.075933106
0.09984107 0.21413799 -0.07093998 0.08423763 -0.09801033 0.121266164 0.22476865 -0.12450717
0.033960972 -0.038083844 0.19961524 -0.035186004 0.11364663 -0.12738071 -0.06498258 0.019109972

net.2.weight f4 [32, 64]
00000000: 8933 483d 07e9 c6bc a0c6 0b3e fe99 aa3d
00000010: 065b 8bbd 4ab6 933d 84ce 5ebd 9e50 a2b8
00000020: 8d1b 2fbd 5313 533d 1e4b af3d ee90 08be
00000030: 8810 f73d 08d0 11be 291d 283e f1f6 9f3d
00000040: b0e1 d439 6828 c1bd aad2 cc3a a183 c5ba
00000050: 5bd1 793c b328 85bb e52b 43bd ee0e efbc
00000060: e13a 8d3d 3bac cc3c 2d02 a2bc aa7c e5bd
00000070: 5a90 ffbd 239e 75bc 99bc afbc 7353 0c3d
00000080: 1247 283e e8d7 0d3e 7ca0 a33d c677 0fbe
00000090: be1b 413d 8eeb 153d eaf5 92bd c5df 0fbe
000000a0: d05a 503d e668 123d 7a96 363d f3ff 333d
000000b0: d9b2 8cbd bd94 9c3d 0f38 543d 41c0 c8bc
000000c0: b773 053e f75e cf3d a821 b83d 0e07 8dbd
000000d0: d190 2dbe 4b06 54bd f155 6fbd 1e7f 0cbc
000000e0: b0b2 ecbc e0dd 72bd 8210 853d bc96 f43c
000000f0: b9f6 7b3d 9e70 6bbd 30e0 80bd 4238 eb3d
00000100: 5f98 b2bc 2b23 18be 4fda d03d 611c 02be
00000110: 41cc febd c043 643d 4647 023d 2883 5bbc
00000120: 37ec f93d f091 75bd bb78 b13d 6e8c 263e
00000130: 1b9c 48bd ba33 e43d 7ff3 15be 360f 203e
00000140: b725 0a3e 2aa8 923d d91a fdbc 955c 9e3c
00000150: 2164 9fbd 7ed3 bcbc 5886 1e3e 0f67 d33d
00000160: 0c50 e2bd 2a62 513d c8bc a33d c340 7bbd
00000170: 7a89 a33d 58b3 a3bb a83c 6cbd 3c40 093e
00000180: 40fc cc3d e1a5 b2bc 1a01 253c f79f 813d
00000190: 6ab6 50bd cf19 c6bd 079e b63d 6786 04bd
000001a0: d6d3 a33d 8dfc bc3d a675 abbd 4226 923d
000001b0: 8e85 153e 768c 00be 6faa 243e 241e 2bbd
000001c0: 4de6 05be 9db8 c6bd dfad 3d3d 6cd3 7dbd
000001d0: a71e 43bc dff4 ffbb b270 b43d 7c58 1ebe
000001e0: 4c78 5bbc f1df bd3d 7a8c aa3d 0909 dfbc
000001f0: dfa9 e23d 387b 793d 113f b33d 6a60 703d
00000200: bc9b 983d 8666 8e3d bb25 b63d 0f18 a63d
00000210: f02a d93d 826d 8cbc 3792 dc3d 3820 02bc
00000220: 3416 52bc 6a5e 15bd 344d 10be 5205 4bbc
00000230: c9e9 d03b e996 babd 0d6a 163e 8411 803d
00000240: ff84 47bd 063b fcbd 1522 81bd ee77 c43b
00000250: 7bc7 52bd 7054 ad3d 56fd f0bd 6515 1c3d
00000260: ab3a 4fbd 4356 f13d 4c5c 293d 973d 1abd
00000270: fa99 9c3c 667a 5fbd 40c3 8b3d d41e 7c3c
00000280: 75f1 fc3d c19a 963c 5003 c53d 54aa 2b3c
00000290: 1b57 22bd 5bf9 bd3d 5beb 20bd 62eb 2b3d
000002a0: 59eb 043e 3499 b93d 50dc 1e3e 7961 373d
000002b0: 25a0 debd 36f7 9f3d ef65 e6bd 371c 4dbd
000002c0: 0289 093e 039d 033e 4183 033e 9f2d d43d
000002d0: 972a 0ebe 7de2 abbc 4b7f 0e3d 06d5 5c3b
000002e0: 3d0a 8e3d 7941 833d 4dfc 673d 72a4 9d3d
000002f0: bdba 843d 7aa0 24bd 6581 503d 9192 2cbd
00000300: cad0 b8bd 9218 453d 4ac5 cf3d 1064 cbbc
00000310: e80f 6b3d 6f5f 8ebd 314a b33c 7b1a cc3d
00000320: 16c2 2c3d a4a3 db3d 9510 073e 30c3 0d3e
00000330: 491b 503c 7ffb 403d 89cc e5bc 8a65 1fbd
00000340: 605b 5f3d 135b 04bc 5821 fabd b173 5e3d
00000350: 686e 913d 33d2 a23b 4ece 98bc 862d 153e
00000360: 6019 debd 5b59 ba3d 2389 6a3d 342a 2dbd
00000370: abf6 c03b 6d97 b73d 5273 aa3d dbeb 7f3d
00000380: 64b5 d03d 1148 133d da6b f5bd 80a5 d43d
00000390: 2faa 4a3c 583d f3bd 4315 5b3d c1b4 a3bd
000003a0: 5f87 9a3d 5238 c53d 5ec2 64bd 6553 8dbd
000003b0: cf00 54bd ce73 c13d e7d8 053e 9e9c be3c
000003c0: f05e c8bc 501c aabd 7532 64bd 5089 f4bd
000003d0: 9a02 90bd 94a0 6c3d c52c 1e3c 9c2e 83bd
000003e0: 4a0c 12be e4c6 52bd 42da 9cbd 43d9 64bd
000003f0: 1778 443d 31c2 0d3d 080b 8f3d f5b9 06bd
0.048877273 -0.024281038 0.13649988 0.08330153 -0.06804471 0.07212503 -0.054396167 -7.739778e-05
-0.042750884 0.0515321 0.08559249 -0.13336536 0.120637 -0.14239514 0.16417374 0.07810772
0.0004060394 -0.09431535 0.0015626748 -0.0015069136 0.015247668 -0.0040636896 -0.047649283 -0.029181924
0.06895996 0.02498447 -0.019776428 -0.112054184 -0.12478705 -0.014991316 -0.021452235 0.03425927
0.16433361 0.13851893 0.07989594 -0.14010534 0.047145598 0.036601596 -0.07175811 -0.14050205
0.050867856 0.03574457 0.0445771 0.043945264 -0.0687005 0.07645557 0.051811274 -0.024505736
0.13032423 0.10125535 0.089907944 -0.06886111 -0.16949774 -0.051763814 -0.05843157 -0.008575229
-0.028893799 -0.059293628 0.06497289 0.029857032 0.06151459 -0.057480447 -0.0629276 0.1148534
-0.021801172 -0.14857166 0.10197889 -0.12706138 -0.12441302 0.055728674 0.031806253 -0.013397969
0.122032575 -0.05995363 0.08665606 0.16264507 -0.048977 0.111426786 -0.14643668 0.15630803
0.1349095 0.07160981 -0.030896591 0.019331256 -0.0778277 -0.023050066 0.15480936 0.10322391
-0.11050424 0.051119007 0.079949915 -0.06134106 0.07985206 -0.0049957447 -0.057675034 0.1340341
0.1000905 -0.021807613 0.010071063 0.06329339 -0.050955214 -0.09672891 0.0891686 -0.03235474
0.07999389 0.09227858 -0.08372049 0.07136203 0.14601728 -0.12553582 0.1608064 -0.04177679
-0.13076134 -0.09703181 0.046308395 -0.061969206 -0.011909164 -0.0078111733 0.088105574 -0.15463442
-0.01339538 0.09271229 0.08327575 -0.027225988 0.110675566 0.060908526 0.08752263 0.058685698
0.07451579 0.069531485 0.08893915 0.081100576 0.10603893 -0.017142061 0.10770076 -0.007942252
-0.012822676 -0.036466993 -0.1409195 -0.012391405 0.0063755256 -0.09110815 0.14688893 0.06253341
-0.04871082 -0.12315945 -0.06305329 0.005995742 -0.05145977 0.08463371 -0.1176707 0.03810634
-0.05059306 0.11784031 0.041347787 -0.037656393 0.01911639 -0.054560088 0.0682435 0.015388209
0.12350742 0.01838434 0.096197724 0.010477621 -0.03963385 0.092760764 -0.039286952 0.041972525
0.12980403 0.09062424 0.1551373 0.04477069 -0.10870389 0.078108236 -0.11249911 -0.050075736
0.1343117 0.12852864 0.12843038 0.10360264 -0.13883434 -0.020982021 0.034789365 0.0033696308
0.069355465 0.06408972 0.056637097 0.07697381 0.0648093 -0.040192105 0.05090465 -0.042131964
-0.09024198 0.048119135 0.10145052 -0.024827987 0.057388216 -0.06951796 0.021885963 0.09965988
0.042177282 0.10724571 0.1318992 0.1384399 0.012701818 0.047114845 -0.028051632 -0.038915195
0.0545305 -0.008078354 -0.12213391 0.05430955 0.071011364 0.0049689054 -0.018653061 0.14568147
-0.10844684 0.090990745 0.05725969 -0.042276576 0.00588878 0.08964429 0.08322777 0.06248079
0.101908475 0.0359574 -0.11983462 0.10383129 0.0123696765 -0.11876935 0.053487074 -0.079934604
0.07545351 0.09629883 -0.055849425 -0.06900672 -0.051758584 0.09445916 0.13071023 0.02326804
-0.024459332 -0.083061814 -0.055712182 -0.11940253 -0.07031746 0.057770327 0.009654229 -0.064053744
-0.142625 -0.051459208 -0.07658817 -0.05587126 0.04796609 0.034609023 0.06984526 -0.032892186

net.2.bias f4 [32]
00000000: 5215 133d 9ee0 993d e0c0 ad3d a75b 85bd
00000010: 8c3d 183e f991 de3c 178b cabd 1dec e43c
00000020: 3f50 5bbc fda8 d93d 02cd bf3d 6b62 90bd
00000030: b2e4 80bb 1f37 2bbd 0e01 923d cbd8 023e
00000040: 8a88 56bd 2c50 383d 37c8 f73d 3a0c 59bd
00000050: 9bda 983d 9caa 6bbd 95fd 273d c663 0a3d
00000060: 8c62 853d 1cab c4bd 940f f43d 9774 773d
00000070: 1ff9 8d3c 4e6d 5f3d 6bea abbd e006 fe3d
0.035909005 0.075135455 0.084840536 -0.06511622 0.14867228 0.027169215 -0.098898105 0.027944619
-0.013385831 0.10627935 0.09365274 -0.07050022 -0.0039335126 -0.041800614 0.071291074 0.12778012
-0.052376308 0.044998333 0.12098735 -0.052990176 0.07463571 -0.057535753 0.04101332 0.033786558
0.06512937 -0.09602949 0.11917034 0.060413923 0.017330704 0.0545476 -0.08394321 0.12403655

net.4.weight f4 [3, 32]
00000000: 6e31 3c3e 054f 68be 0f04 d33d 22d5 553d
00000010: 9543 22be 1c13 e6bc 814f c63d 36ec 323e
00000020: fc76 12be 58d1 4b3d 3e4e 053e 3b04 5c3d
00000030: 2ba6 bcbd 479c 513e 953b 24bd c313 9c3a
00000040: 061c 073d b286 373d 861a 63be 06fc 5bbe
00000050: 055f ec3c 32f3 47be 866e 52be 689e 4b3e
00000060: 64a2 293c e784 433e 158e 2b3e 9c7e f6bd
00000070: fe6c 16be 3223 093e 75ce 80bb c51b 87bd
00000080: 586e 1abe 8ea3 0c3e 0e3b f9bd efa2 c63d
00000090: 7e38 103e c79a 1e3e 0b59 883d 12a9 593e
000000a0: 8df7 48be f489 c73d 7fae cabd 0bd1 2f3e
000000b0: 5587 46be 3783 63be 0ad0 613c 8019 15be
000000c0: b52a 2e3e 99c9 adbd fb58 9e3d 1073 dc3d
000000d0: cc5c 1a3e 0b0c 4ebd 4096 c5bd b1e5 b63b
000000e0: 6192 adbd 67db 1fbe ac61 b73d b54a eabc
000000f0: ce23 0abe 1d02 ad3c 09a5 50be 6489 473d
00000100: e1bc 5f3c ab4d b6bd 39b2 28be 3e5d 523d
00000110: 0391 023e 4d22 47bd cd9b d83d 4b08 f53a
00000120: 846a 403e fc36 103e 1f49 11be ec56 61be
00000130: 9376 1abe 3881 bdbc 14a7 3fbe d865 c1bd
00000140: 978b 53bd 1e1d 43bd 0c9b ba3d c66c 1dbc
00000150: bf8d e03d e01f 45bd fad9 33bd cdcb b2bd
00000160: 22b7 3dbe 93b9 35be 9ce9 4bbe 7032 2e3e
00000170: b7cb a33d 46a9 393d ea30 963d c23c b03d
0.18378231 -0.22686394 0.103035085 0.052205212 -0.15846093 -0.028085284 0.09683133 0.1747292
-0.14303201 0.049760193 0.13018128 0.053714972 -0.092113815 0.20469771 -0.040095884 0.0011907745
0.03298571 0.04480619 -0.22178087 -0.21482858 0.028853903 -0.19526365 -0.20549974 0.19884646
0.010353658 0.19093667 0.16753419 -0.120358676 -0.14690015 0.13392332 -0.0039308616 -0.065970935
-0.15081155 0.13734266 -0.12169467 0.09699046 0.1408405 0.1548873 0.066576086 0.21255901
-0.19625683 0.09743109 -0.09896564 0.17169587 -0.19387563 -0.22218023 0.0137825105 -0.14560509
0.17008479 -0.08485717 0.077318154 0.10764134 0.15074462 -0.050304454 -0.096477985 0.0055815806
-0.08475185 -0.15611039 0.08954176 -0.028600076 -0.13490221 0.021119172 -0.20375456 0.04871501
0.013655872 -0.08901533 -0.16474237 0.051358454 0.1275063 -0.048616696 0.10576592 0.0018694488
0.18790632 0.14083475 -0.1418805 -0.22005814 -0.15084295 -0.023132905 -0.18716079 -0.09443253
-0.051646795 -0.04763519 0.09111604 -0.009608453 0.10964536 -0.0481261 -0.04390905 -0.08730278
-0.18526891 -0.17746572 -0.19913334 0.17011428 0.0799784 0.045327447 0.07333548 0.08605339

net.4.bias f4 [3]
00000000: 0361 203e 1ce6 513a 2ceb a6bd
0.15662007 0.0008007006 -0.08150324
